Fokas_cup/Data/Model/LSTM_A.pt (torch, 61127 bytes, 9 tensors)

weight_ih_l0 f4 [128, 12]
0	0x3d81e385	0.06342224
1	0xbdd715d3	-0.105022095
2	0xbd3923c4	-0.045200124
3	0xbd2905dc	-0.041265354
4	0xbe16ad39	-0.14714517
5	0x3f626f84	0.8845141
6	0x3efcded6	0.4938876
7	0x3eb825d4	0.3596636
8	0x3e5564ab	0.20839183
9	0x3e8ec583	0.27885064
10	0x3dedb0d8	0.11605996
11	0x3d377feb	0.044799726
12	0xbe40cf37	-0.18829046
13	0x3dcbf093	0.09957995
14	0x3de3f98f	0.11131584
15	0x3e509c6b	0.20372169
16	0xbe45d339	-0.19318856
17	0x3e7eaa4a	0.24869648
18	0x3e444a17	0.19168888
19	0x3e0140f2	0.12622431
20	0xbc806064	-0.015670963
21	0xbe0d8f51	-0.13824202
22	0x3d27a16b	0.040925425
23	0xbdf24823	-0.11830165
24	0x3d7e823c	0.06213592
25	0xbd9a7aab	-0.07542928
26	0xbe5d1eb1	-0.21593739
27	0xbe89d390	-0.26919222
28	0x3db661a9	0.08905346
29	0xbf0f18f2	-0.5589744
30	0xbf2b0a12	-0.6681224
31	0xbf250d11	-0.6447306
32	0xbf215fb3	-0.6303665
33	0xbf56aff6	-0.83862245
34	0xbd0c21b1	-0.034211818
35	0xbdf2012a	-0.11816628
36	0x3d9420ac	0.07232794
37	0x3e29f8b0	0.16598773
38	0xbd1af7e1	-0.037834052
39	0x3e3403ab	0.17579524
40	0x3c89cc2c	0.01682099
41	0x3e6fcbd3	0.23417597
42	0x3ded558f	0.11588585
43	0x3d148a46	0.03626468
44	0x3daaaa2a	0.083332375
45	0xbdf86156	-0.1212794
46	0x3dcd1e5e	0.10015558
47	0x3dcf6a7e	0.10127734
48	0xbee83be7	-0.45358202
49	0xbe996df6	-0.29966706
50	0xbe0a3e7f	-0.13500403
51	0xbeb11e5f	-0.34593484
52	0xbe190d09	-0.14946379
53	0xbf840d40	-1.0316544
54	0xbf51d7c0	-0.81969833
55	0x3dde54ec	0.10856041
56	0x3e7c40b8	0.24634063
57	0x3da73ffa	0.081664994
58	0xbeeecf41	-0.46642497
59	0xbe91935b	-0.28432736
60	0x3dbec7da	0.093154624
61	0x3e0de24f	0.13855861
62	0xbcc9905a	-0.024604965
63	0x3e9225d5	0.2854449
64	0x3995dc6b	0.0002858372
65	0xbfad7b93	-1.3553337
66	0xbf5c8d99	-0.8615356
67	0x3e13c500	0.14430618
68	0x3dfe1607	0.12406545
69	0xbe11532c	-0.14191884
70	0x3d132572	0.035924383
71	0x3e189643	0.1490107
72	0xbeb46217	-0.35231087
73	0xbe806b7d	-0.25082007
74	0xbdd2fe61	-0.10302425
75	0xbe541ecd	-0.20714875
76	0xbd27c1a1	-0.040956143
77	0x3dfdae02	0.12386705
78	0xbd5331bf	-0.051561113
79	0x3c4c5f58	0.012473904
80	0xbd2c8e55	-0.042127926
81	0x3e129f3e	0.14318559
82	0xbe93708a	-0.28796798
83	0xbeb27b42	-0.34859663
84	0xbc2759ae	-0.010214252
85	0x3e0e8ed1	0.13921668
86	0x3e5f673c	0.21816725
87	0x3e87ccc9	0.26523426
88	0x3e645090	0.22296357
89	0x3e654f54	0.22393543
90	0x3da6d9b5	0.08146993
91	0x3e1db8fc	0.15402597
92	0x3e081e93	0.13292913
93	0xbe2ebb0d	-0.17063542
94	0x3e80ade5	0.2513267
95	0x3e2658ab	0.16244762
96	0xbd1d9654	-0.038473442
97	0x3de16263	0.11005094
98	0x3db47298	0.088109195
99	0xbdaff0d2	-0.08590855
100	0xbd50df35	-0.050994117
101	0xbed634dc	-0.41837204
102	0xbd538fe4	-0.051650897
103	0xbd90a73f	-0.0706315
104	0xbe1ec8a9	-0.15506233
105	0xbe5d1c4c	-0.21592826
106	0xbdb7afb2	-0.08969058
107	0xbdce4086	-0.100709006
108	0x3cbfd107	0.023415102
109	0x3e341ebb	0.17589848
110	0xbe136788	-0.14394963
111	0x3d536fd1	0.05162031
112	0xbd795268	-0.060869604
113	0x3dd565a1	0.10419775
114	0xbd7d6d6b	-0.061871927
115	0x3d887a24	0.066639215
116	0xbe2afef6	-0.16698822
117	0xbe0e702c	-0.13909978
118	0x3e25029f	0.16114281
119	0x3d04764d	0.032339383
120	0xbe047e20	-0.12938738
121	0xbe5bb253	-0.21454744
122	0xbb436764	-0.0029816264
123	0xbcb92bcd	-0.022603894
124	0xbe0d79f7	-0.13816057
125	0xbe21e5bd	-0.15810294
126	0xbe9fd3d2	-0.31216294
127	0x3e08b3ed	0.13349886
128	0x3d5cfdf8	0.05395314
129	0xbe238b5f	-0.15971135
130	0xbe07d824	-0.13266045
131	0xbd8e7ac9	-0.06957013
132	0x3f2309a6	0.636866
133	0x3f21c685	0.6319354
134	0x3f100958	0.5626426
135	0x3ee37544	0.44425404
136	0x3e9e94f4	0.30973017
137	0x3f3e3cc2	0.7431146
138	0x3f030876	0.51184785
139	0xbd376995	-0.044778425
140	0xbd42bdc5	-0.04754426
141	0xbd1eac7e	-0.03873872
142	0x3f3e0033	0.74219054
143	0x3f2d8f57	0.67796844
144	0x3bd10be1	0.00637959
145	0xbd6381bd	-0.05554365
146	0x3dd6265a	0.10456534
147	0xbd92b6b1	-0.07163752
148	0xbe247cae	-0.16063187
149	0x3ed615e8	0.41813588
150	0x3cd99113	0.026558435
151	0xbea05031	-0.3131118
152	0xbdc0e0e2	-0.09417893
153	0xbd307943	-0.043084394
154	0xbc002618	-0.007821582
155	0x3d16d2f1	0.036822263
156	0xbcec83cb	-0.028871438
157	0x3e2c8f82	0.16851619
158	0x3d8022d2	0.062566414
159	0x3e3162f0	0.17322898
160	0x3e334fe5	0.17510946
161	0x3e0e8c8a	0.13920799
162	0x3dbda65c	0.09260246
163	0xbe12e6e6	-0.14345893
164	0x3dab0933	0.08351364
165	0x3deb651f	0.11493897
166	0xbc277023	-0.010219607
167	0x3e088533	0.13332061
168	0x3d102b91	0.0351978
169	0xbde18b1e	-0.110128626
170	0xbd01fbc8	-0.031734258
171	0xbcad64eb	-0.021166285
172	0xbd2957f6	-0.04134365
173	0xbe8e69ab	-0.27814993
174	0xbe797882	-0.24362376
175	0x3db4759d	0.088114955
176	0x3e180e7f	0.1484928
177	0xbdb777f9	-0.0895843
178	0xbda245fb	-0.07923504
179	0x3c6463ca	0.013939807
180	0xbe985d18	-0.29758525
181	0xbe1cf597	-0.1532806
182	0xbe8044bb	-0.25052437
183	0xbe7b22f3	-0.24525051
184	0xbe818ef9	-0.25304392
185	0xbee56e9a	-0.44810945
186	0xbe9c3deb	-0.3051599
187	0xbe74013e	-0.23828599
188	0x3d20cc77	0.039257493
189	0xbe14cc70	-0.14531112
190	0xbe338d17	-0.1753429
191	0xbda56d63	-0.080775045
192	0x3e4c7da0	0.19969797
193	0x3d78eea3	0.060774457
194	0x3e3ca395	0.18421777
195	0x3d8e78f2	0.06956662
196	0x3db46844	0.088089496
197	0xbf21098d	-0.629052
198	0xbccf076f	-0.0252721
199	0xbd948d1b	-0.07253476
200	0xbb857da1	-0.004073814
201	0xbe28e3d9	-0.16493167
202	0x3e44c572	0.19215944
203	0x3e12d4a9	0.14338936
204	0xbdff401b	-0.12463399
205	0xbe2b91c4	-0.16754824
206	0xbe24bd95	-0.16087945
207	0x3da3faa1	0.08006788
208	0xbe659180	-0.22418785
209	0x3dd14b34	0.10219422
210	0xbdc0ce3d	-0.09414337
211	0xbd54b8f6	-0.051934205
212	0xbc164b50	-0.009173229
213	0x3d922b77	0.071371965
214	0xbe0a28ca	-0.13492122
215	0xbe425dad	-0.18981047
216	0xbddb790b	-0.107164465
217	0x3e5dbcf1	0.21654107
218	0xbd8e3e7a	-0.0694551
219	0x3e516ac8	0.2045089
220	0x3de614b8	0.112344205
221	0x3ceafbbe	0.028684493
222	0x3d8bac43	0.06819966
223	0xbd48e362	-0.049044974
224	0xbd3d06ef	-0.04614919
225	0xbdcd05d0	-0.10010874
226	0xbd3f2832	-0.046669193
227	0x3e54189a	0.2071251
228	0x3da63bbc	0.08116862
229	0x3e08a8d4	0.13345653
230	0x3e1533ed	0.1457059
231	0xbd9145a2	-0.070933595
232	0xbce054a2	-0.027384106
233	0x3e95b0d3	0.2923647
234	0x3e3db95c	0.1852774
235	0xbe54da4d	-0.207864
236	0xbe9bc23d	-0.3042163
237	0xbe1a25f2	-0.15053537
238	0x3e63891b	0.2222027
239	0x3df5cb9c	0.12001726
240	0x3ebf8004	0.37402356
241	0x3eb8d0a3	0.36096677
242	0x3d9c4cd4	0.07631841
243	0x3e83e15c	0.25757873
244	0x3e0e7ddc	0.13915199
245	0x3f352e50	0.7077379
246	0x3f273b24	0.65324616
247	0x3ef8028b	0.4843944
248	0x3f0d712f	0.5525083
249	0x3f2dd97e	0.6790999
250	0x3d9819d2	0.074268
251	0x3e2aa430	0.16664195
252	0xbdd1bd07	-0.10241132
253	0xbdefb4e1	-0.11704422
254	0x3c2ba598	0.010476492
255	0x3d3e0fdf	0.046401855

weight_hh_l0 f4 [128, 32]
0	0xbde02fe7	-0.10946637
1	0xbe8a9609	-0.27067593
2	0x3f7730e8	0.96559
3	0xbe69e8a2	-0.22842649
4	0xbef3560e	-0.47526592
5	0x3d8d47f2	0.06898488
6	0xbe368b1b	-0.17826502
7	0xbe03aee5	-0.12859686
8	0xbdfe1b96	-0.12407605
9	0x3dd6ebbe	0.10494183
10	0x3e17d032	0.14825514
11	0xbe4fc778	-0.20290935
12	0xbda4d294	-0.08047977
13	0x3e2ce9ab	0.16886012
14	0xbda80285	-0.082036056
15	0x3e187b66	0.14890823
16	0xbddf2a29	-0.10896713
17	0xbcb3232c	-0.021867357
18	0x3da0e70a	0.07856567
19	0xbe821027	-0.25402948
20	0x3e1a7f10	0.15087533
21	0xbe8ef7c5	-0.27923408
22	0x3f2185e6	0.6309494
23	0x3d876a68	0.06612092
24	0xbd8c859a	-0.0686142
25	0x3d7662fe	0.060153
26	0xbe8b07a9	-0.27154282
27	0x398d8164	0.0002699002
28	0x3ddebde6	0.10876064
29	0x3ab18f9c	0.0013546827
30	0xbd8e8235	-0.06958429
31	0x3e5250b6	0.20538601
32	0xbe42a88a	-0.19009605
33	0x3dabd53b	0.0839028
34	0x3e691766	0.22762832
35	0x3dd5f1db	0.10446521
36	0x3d061c58	0.032741874
37	0x3abaeeac	0.0014261804
38	0xbdc5b786	-0.09654145
39	0xbe0673dd	-0.13130136
40	0xbd90ee36	-0.07076685
41	0x3d21faf0	0.039545953
42	0x3e0527a7	0.13003407
43	0xbe53d9a6	-0.20688495
44	0xbdba69f2	-0.09102239
45	0x3d84c1ca	0.06482275
46	0x3d749bd2	0.059718914
47	0x3dfc1ea9	0.123105355
48	0xbd2b8a08	-0.041879684
49	0xbda13d68	-0.078730404
50	0x3dc7ade8	0.09749967
51	0x3d5188a8	0.051155716
52	0xbea8d3c6	-0.3297407
53	0xbdd3854c	-0.10328159
54	0xbe057a60	-0.13034964
55	0x3d4a9a8e	0.0494638
56	0x3dca029d	0.0986378
57	0x3e95a1e7	0.29225084
58	0xbe1046fa	-0.14089575
59	0x3da6151c	0.08109495
60	0xbdf9e983	-0.12202742
61	0x3c0ba33d	0.008522806
62	0xbcaaac09	-0.020833986
63	0xbd69d067	-0.057083514
64	0x3de4648f	0.111519925
65	0x3e011187	0.12604342
66	0x3e16b56a	0.14717641
67	0xbec50e9c	-0.3848771
68	0xbfa093b9	-1.2545081
69	0x3dbaa84c	0.09114131
70	0xbe444620	-0.19167376
71	0x3eea4bf1	0.45761064
72	0xbec29600	-0.38005066
73	0x3f6ca5b3	0.92440337
74	0x3f7282fb	0.9473111
75	0x3f195461	0.59894377
76	0xbed9f64f	-0.4257073
77	0x3d803fb5	0.06262151
78	0xbf27e23a	-0.6557957
79	0x3f9c0ea5	1.2191969
80	0x3eaad1a9	0.33363083
81	0x3e965c59	0.2936733
82	0xbee54f65	-0.44787136
83	0x3e0d7eac	0.13817853
84	0x3e011a3b	0.12607662
85	0xbf07b30a	-0.53007567
86	0x3ded0ce2	0.11574723
87	0x3f3c3078	0.7351146
88	0xbdacbc3e	-0.08434342
89	0xbf95bb77	-1.1697835
90	0x3f1aac6c	0.60419345
91	0xbf3fa7a6	-0.74865186
92	0x3f8fa4bb	1.1222147
93	0x3e9e3039	0.30896166
94	0xbf2ea1c9	-0.68215615
95	0xbd475b4c	-0.04867105
96	0xbdb5327f	-0.08847522
97	0xbdb6ec61	-0.089318044
98	0xbe1cd548	-0.15315735
99	0xbc81270b	-0.015765687
100	0x3d7e3ec5	0.06207158
101	0xbd6fc712	-0.058539458
102	0xbe389dcf	-0.18028949
103	0xbdfb23e1	-0.12262703
104	0xbdb09f4e	-0.08624135
105	0xbd8ac771	-0.06776322
106	0x3e679325	0.22614725
107	0xbe25c159	-0.16187038
108	0x3d383d59	0.04498038
109	0xbdffcd09	-0.12490279
110	0xbe074c3b	-0.13212673
111	0x3df0ad89	0.11751849
112	0x3e71f9f0	0.236305
113	0x3c683521	0.014172823
114	0xbe002928	-0.125157
115	0xbe575bef	-0.21031164
116	0x3d8d9bd0	0.069144845
117	0xbe8b0128	-0.2714932
118	0x3ecafd3f	0.39646336
119	0x3e3dd4bf	0.18538187
120	0xbd87bf65	-0.066283025
121	0xbd6d764f	-0.057974156
122	0xbc939667	-0.018016053
123	0xbdedb949	-0.11607606
124	0x3dd76443	0.1051717
125	0xbe4ac7bf	-0.1980276
126	0x3d9391f2	0.07205571
127	0xbde8639e	-0.113471255
128	0xbe13b936	-0.14426121
129	0x3d8655e5	0.06559352
130	0x3e6d8c69	0.23198093
131	0xbc5fdb00	-0.0136630535
132	0xbea855b6	-0.32877892
133	0xbd02f5e4	-0.03197278
134	0xbe48f4b4	-0.19624597
135	0xbe2189f9	-0.15775289
136	0xbe3365b7	-0.1751927
137	0xbe608321	-0.21925022
138	0x3ebd6299	0.36989287
139	0x3d88fbe5	0.0668867
140	0xbf07cdb9	-0.5304828
141	0xbe30d139	-0.17267312
142	0xbda9a59e	-0.08283542
143	0xbf6b94f9	-0.9202419
144	0xbee968ae	-0.45587677
145	0x3d1bf06b	0.038071077
146	0x3ce0a176	0.02742074
147	0xbf67ac1e	-0.90497005
148	0x3efa6011	0.48901418
149	0x3f679a25	0.9046958
150	0xbea60299	-0.32423857
151	0x3ec9b2cc	0.39394224
152	0xbe129280	-0.14313698
153	0xbe8aad64	-0.27085412
154	0x3e220c06	0.15824899
155	0x3e24472e	0.16042778
156	0x3e4cd3b0	0.20002627
157	0xbec347d5	-0.3814074
158	0xbd0b7bd2	-0.03405363
159	0x3e12de95	0.14342721
160	0xbdde6c6b	-0.10860523
161	0x3f105990	0.5638666
162	0xbfc171c4	-1.5112844
163	0xbe157b4a	-0.14597812
164	0xbd3ac221	-0.045595292
165	0x3cc032c9	0.023461716
166	0xbca52846	-0.020160805
167	0xbed5304a	-0.41638404
168	0xbf210f70	-0.6291418
169	0xbe8f1adb	-0.27950177
170	0xbe6c7e70	-0.23095107
171	0xbcaa6201	-0.020798685
172	0xbf12d49a	-0.57355654
173	0x3e80fae0	0.25191402
174	0x3e88af6a	0.2669633
175	0x3e872768	0.26397252
176	0x3e344d6e	0.17607662
177	0xbd202723	-0.039099824
178	0x3f283307	0.6570286
179	0xbe93138d	-0.28725854
180	0xbf027c35	-0.50970775
181	0xbd2b386e	-0.041801862
182	0x3ea8fc14	0.3300482
183	0xbead6f85	-0.33874145
184	0x3d8cf5c0	0.068828106
185	0x3c9fb3b7	0.019494874
186	0x3eaf37d8	0.34222293
187	0x3e44a6fc	0.19204324
188	0xbe9d1394	-0.30679
189	0xbe5f65fe	-0.2181625
190	0xbe4644f5	-0.19362243
191	0x3e51c327	0.20484601
192	0xbe50f78a	-0.20406929
193	0xbe386ad3	-0.180095
194	0x3f32bbfa	0.6981808
195	0x3e912552	0.28348786
196	0x3d2b98d8	0.04189381
197	0x3da4c0c9	0.08044583
198	0x3e1032b0	0.14081836
199	0x3edb2040	0.42798042
200	0x3c970ef6	0.018439751
201	0xbd9aa9d8	-0.075519264
202	0x3d9b682c	0.075882286
203	0x3db85610	0.0900079
204	0x3e3f3edd	0.18676324
205	0xbe827ce3	-0.25485906
206	0x3d6fa296	0.058504663
207	0x3e35ed2f	0.1776626
208	0xbd5cc32d	-0.05389707
209	0xbda0b29a	-0.078465655
210	0xbe8c9ec0	-0.27464867
211	0x3efe24f1	0.4963756
212	0xbddf094d	-0.10890446
213	0x3d816340	0.063177586
214	0xbeb9fe94	-0.3632704
215	0x3e5728b6	0.21011624
216	0xbe1a519b	-0.15070193
217	0xbd75816c	-0.05993788
218	0xbe9d7181	-0.3075066
219	0xbe09cf68	-0.13458025
220	0x3da4e844	0.08052114
221	0x3f092c7e	0.53583515
222	0x3e1e9b2f	0.15488885
223	0xbe2b8863	-0.16751246
224	0x3d120c21	0.0356561
225	0x3e3872ad	0.18012495
226	0xbf2ca7b0	-0.6744337
227	0x3deec685	0.11658958
228	0x3e4fb243	0.20282845
229	0x3e986249	0.29762486
230	0xbe07cc60	-0.13261557
231	0xbdc359d7	-0.0953862
232	0xbde64414	-0.112434536
233	0xbd6851d3	-0.05671866
234	0xbd4f8eae	-0.05067318
235	0xbd259057	-0.040420856
236	0x3d10e318	0.035372823
237	0x3e226e1e	0.15862319
238	0xbe9bd50b	-0.30435976
239	0xbf157fa4	-0.5839789
240	0x3f2b8bc1	0.6701012
241	0xbd8f3b92	-0.06993784
242	0x3e1f0a32	0.15531233
243	0xbed909d6	-0.42390317
244	0xbeca0fd9	-0.39465216
245	0x3e4b5db2	0.1985996
246	0x3fac6d3c	1.3470836
247	0x3d9bad51	0.07601417
248	0x3dad90b1	0.08474863
249	0xbe006ed8	-0.12542284
250	0xbd54fd7a	-0.051999547
251	0xbe0ccbcf	-0.13749622
252	0xbdfd12b8	-0.12357086
253	0xbe3431a6	-0.17597064
254	0x3d60486d	0.05475657
255	0xbd92c44c	-0.07166347

bias_ih_l0 f4 [128]
0	0x3d584402	0.052799232
1	0x3cd40925	0.025883267
2	0xbd14d617	-0.036336984
3	0x3de50787	0.11183076
4	0x3d06526e	0.032793455
5	0x3e0fa7e3	0.14028887
6	0x3dcf9329	0.101354904
7	0xbe26e934	-0.16299897
8	0x3e15d810	0.14633203
9	0x3e291ce6	0.1651493
10	0x3e0f1b64	0.13975292
11	0xbc9421f9	-0.018082606
12	0x3e8865bc	0.26640117
13	0x3dc2940f	0.09500896
14	0x3e27ba3a	0.16379634
15	0xbced5c15	-0.028974572
16	0xbe55e8ce	-0.20889589
17	0x3dafeb50	0.08589804
18	0x3e066bb9	0.1312703
19	0x3e81f658	0.25383258
20	0x3e666d41	0.22502615
21	0x3e050055	0.12988408
22	0x3d2bf958	0.04198584
23	0x3e2770f8	0.16351688
24	0xbda18bfb	-0.07888027
25	0xbdaa33f9	-0.08310694
26	0x3c879a17	0.016552968
27	0x3c30a1c7	0.010780758
28	0x3d8c105a	0.06839056
29	0xbd3b40f0	-0.045716226
30	0xbd6dceae	-0.058058433
31	0x3d33fa70	0.043940008
32	0xbb5a4831	-0.003330719
33	0xbe18fb78	-0.14939678
34	0xbd874510	-0.066049695
35	0xbcdd9237	-0.02704726
36	0x3e1eb2cf	0.15497898
37	0xbe403ca7	-0.18773137
38	0x3e02f7a5	0.12789781
39	0x3e3f5106	0.18683252
40	0xbe0a773f	-0.13522051
41	0xbd69b6c3	-0.05705906
42	0xbcda4c1f	-0.026647625
43	0x3dd3cdde	0.103420004
44	0xbdf1b65f	-0.11802363
45	0x3dc14837	0.09437602
46	0x3e220e18	0.15825689
47	0x3b98815f	0.004654094
48	0xbe0ad1a5	-0.13556536
49	0x3d2fb7ba	0.042899825
50	0xbcad87f9	-0.021183
51	0x3e2c49f7	0.1682509
52	0x3e7a9d38	0.24474037
53	0xbd739dce	-0.059476666
54	0x3dc09be7	0.09404736
55	0x3e250642	0.16115668
56	0x3cc51f9c	0.024062924
57	0xbd06cd34	-0.03291054
58	0xbd591080	-0.05299425
59	0x3e14bc67	0.14524995
60	0xbe11f54a	-0.14253727
61	0x3e62223d	0.22083373
62	0x3e23ceca	0.15996853
63	0x3d61eb3a	0.05515597
64	0xbe0c61f2	-0.13709238
65	0xbe0a8dd6	-0.13530669
66	0x3d82dfa9	0.06390316
67	0xbdf032fb	-0.11728474
68	0x3c806e7d	0.015677685
69	0x3d1fafa0	0.03898585
70	0xbd4bbfd7	-0.0497435
71	0xbdedbcec	-0.116082996
72	0x3e36e459	0.17860545
73	0x3bce1c4c	0.0062899943
74	0x3d2cd941	0.042199377
75	0xbc9a3523	-0.018824166
76	0xbdb635cd	-0.088969804
77	0x3e1f1f6a	0.15539327
78	0x3e156b33	0.14591675
79	0x3e508a0a	0.20365158
80	0x3e2bf6ed	0.16793413
81	0x3d3d97e9	0.04628745
82	0x3d68c8f7	0.05683228
83	0xbdc2a976	-0.09504978
84	0x3e2c5a95	0.1683143
85	0xbd18d3d3	-0.037311386
86	0xbe635daa	-0.22203699
87	0x3e0b29e0	0.13590193
88	0x3dd1cf65	0.102446355
89	0xbd61d65d	-0.055136073
90	0x3e150174	0.14551336
91	0xbce9706d	-0.028495992
92	0x3c629be9	0.013831117
93	0x3a8a7186	0.0010562397
94	0xbe034bfb	-0.12821953
95	0x3e1ab06d	0.15106364
96	0x3e066ccd	0.13127442
97	0x3d8a32c9	0.06747968
98	0xbd40befb	-0.047057133
99	0xbdfb3766	-0.12266426
100	0xbd5c33a4	-0.053760186
101	0xbdd42978	-0.10359472
102	0xbd42a8d9	-0.047524307
103	0x3c6eca41	0.014574588
104	0xbdc253a9	-0.09488613
105	0x3e2dfc0a	0.16990677
106	0xbd0c43dc	-0.034244403
107	0xbe8dc2a0	-0.2768755
108	0x3e11aa2c	0.14225072
109	0xbd0b01d0	-0.033937275
110	0xbbf97bc8	-0.007613633
111	0xbc55d1f3	-0.013050544
112	0x3dd89966	0.105761334
113	0x3e292499	0.16517867
114	0xbe031ae9	-0.12803234
115	0x3d01ad2a	0.031659283
116	0x3de5a740	0.11213541
117	0xbc90ab1f	-0.017659722
118	0x3e007e21	0.12548114
119	0x3cd2d8d5	0.02573816
120	0x3cd398d1	0.025829704
121	0xbe10db92	-0.1414626
122	0xbd07a390	-0.03311497
123	0x3d87b817	0.06626909
124	0x3d1c1cd4	0.03811343
125	0x3e3254cc	0.1741516
126	0x3d556102	0.052094467
127	0xbcca097a	-0.024662722

bias_hh_l0 f4 [128]
0	0x3dcb25a7	0.09919291
1	0xbde0499d	-0.109515406
2	0x3cd28e23	0.025702542
3	0x3e28ff26	0.16503581
4	0xbd57a15a	-0.05264411
5	0xbe0d044d	-0.13771172
6	0xbdb5c11e	-0.08874725
7	0xbda36762	-0.07978703
8	0x3e3e9494	0.18611366
9	0x3cb6bae7	0.022305919
10	0xbdf1f527	-0.11814337
11	0xbe38dab4	-0.18052179
12	0x3e0a0942	0.13480094
13	0xbc37e8cb	-0.011224936
14	0x3e748995	0.23880608
15	0xbc386d54	-0.011256535
16	0xbed643d8	-0.41848636
17	0x3d096e68	0.033552557
18	0xbdaf937c	-0.08573052
19	0x3ec3cc4f	0.38241813
20	0x3db72dcb	0.08944281
21	0xbc9d0f6a	-0.019172389
22	0x3e272d03	0.16325764
23	0x3cf953e5	0.030435512
24	0x3d2e987e	0.042625897
25	0xbe1c15fb	-0.1524276
26	0xbe0d2f16	-0.13787493
27	0x3da79a28	0.081837
28	0xbdae4be6	-0.0851057
29	0xbdc0ef3d	-0.09420631
30	0x3e42a973	0.19009952
31	0x3e00c60f	0.12575553
32	0x3e4dcbb8	0.20097244
33	0x3d144005	0.036193866
34	0x3ceac83d	0.028659934
35	0xbd2e0486	-0.042484783
36	0xbddad0a2	-0.10684325
37	0x3e0bc39c	0.13648838
38	0xbd9a688f	-0.07539474
39	0x3d29884d	0.041389752
40	0xbdb31f10	-0.08746159
41	0x3d1653db	0.036701065
42	0xbd312024	-0.043243542
43	0xbdf0de54	-0.11761156
44	0x3e085137	0.13312231
45	0xbc38b723	-0.011274132
46	0x3e1a92a9	0.15095009
47	0x3c169a85	0.009192114
48	0xbba469fb	-0.0050175167
49	0x3ba70d3e	0.005098014
50	0x3dc0023c	0.09375426
51	0x3e3d01d9	0.18457736
52	0xbd32f289	-0.04368833
53	0x3ba6ebd1	0.0050940295
54	0x3d276d14	0.04087551
55	0x3e2f310c	0.17108554
56	0x3d35bb65	0.044368166
57	0xbb8f8ae5	-0.004380571
58	0xbdffe520	-0.12494874
59	0x3e0b98b0	0.13632464
60	0xbc0cbb84	-0.008589629
61	0x3cd0abf7	0.025472624
62	0x3dd8b6cb	0.1058174
63	0x3d86ed23	0.06588199
64	0x3d809cba	0.06279893
65	0x3d7a108a	0.06105093
66	0xbd98f7e9	-0.0746916
67	0xbddf7fc1	-0.10913039
68	0x3e1a5130	0.15070033
69	0xbd783ed8	-0.060606807
70	0xbd777816	-0.060417257
71	0x3bffd14c	0.0078069326
72	0xbdb72fe9	-0.08944685
73	0x3dacc9b8	0.08436912
74	0x3d4bb894	0.049736574
75	0xbe5d857c	-0.21632951
76	0x3d38d9f3	0.045129728
77	0xbe07f8b6	-0.1327847
78	0xbd20457d	-0.03912877
79	0x3e2c5c56	0.16832098
80	0x3d98a546	0.074533984
81	0xbcdd9f44	-0.027053483
82	0x3d9494c9	0.07254941
83	0x3e3d59ec	0.18491334
84	0x3e56c29a	0.20972672
85	0xbe499b71	-0.19688202
86	0x3ca505ec	0.020144425
87	0x3df804bc	0.12110278
88	0x3c7f974d	0.015600038
89	0xbd4b44c0	-0.049626112
90	0xbc31b294	-0.010845799
91	0xbdf20f5e	-0.11819337
92	0x3e1fce3b	0.15606014
93	0x3e1decfe	0.15422437
94	0x3cdb3c7c	0.02676224
95	0x3c8a43c0	0.016878009
96	0x3d6be324	0.057589665
97	0x3df287fe	0.11842345
98	0x3dc54a54	0.096333176
99	0xbd206a80	-0.039164066
100	0x3e5bce07	0.21465312
101	0x3d865ced	0.06560693
102	0x3da4bfd1	0.080443986
103	0xbdcb720d	-0.09933863
104	0x3d0cda8e	0.034388117
105	0x3e08e403	0.1336823
106	0x3d9bbc7d	0.07604311
107	0xbe845e05	-0.2585298
108	0x3d87ead9	0.066365905
109	0xbdfd95c6	-0.12382083
110	0x3e3af142	0.18256095
111	0x3e458aa1	0.19291164
112	0xbdba7704	-0.09104732
113	0x3e45bc4f	0.19310115
114	0x3cf77710	0.03020814
115	0x3e47cd26	0.19511852
116	0x3e2ffcfb	0.17186348
117	0x3e4be6a0	0.19912195
118	0x3dc11e56	0.09429614
119	0xbd90e5a4	-0.070750505
120	0xbe2ad126	-0.16681346
121	0xbd276fd3	-0.04087813
122	0xbc33d535	-0.0109761255
123	0x3dd29ee4	0.10284212
124	0xbe259e66	-0.16173705
125	0xbd80a8e9	-0.06282217
126	0xbe3663da	-0.17811528
127	0xbdf67a02	-0.1203499

weight_ih_l1 f4 [128, 32]
0	0x3e34940b	0.17634599
1	0x3e63ff1b	0.22265284
2	0x3f607556	0.8767904
3	0x3d644442	0.05572916
4	0x3f206722	0.6265737
5	0xbd9214d6	-0.071328804
6	0x3e0fb606	0.1403428
7	0x3e335c3b	0.17515652
8	0x3e3c09c6	0.18363103
9	0xbcd0cefe	-0.025489327
10	0x3d22527e	0.039629452
11	0xbd8600d5	-0.065431274
12	0x3e972456	0.2951991
13	0x3b92dcee	0.0044819033
14	0x3e80c5b7	0.25150844
15	0x3ea6e08c	0.3259319
16	0x3ebf21bb	0.37330422
17	0xbdb6574c	-0.08903369
18	0xbe3fbaf4	-0.1872366
19	0x3ef9cadb	0.4878758
20	0x3e49cd5d	0.19707246
21	0xbcdf1044	-0.027229436
22	0x3e3f7332	0.18696287
23	0x3e7b765f	0.24556874
24	0x3e35efe2	0.1776729
25	0xbe167001	-0.14691164
26	0x3ea330ac	0.3187307
27	0xbe782473	-0.24232654
28	0x3e1fae6a	0.15593877
29	0x3fa15aeb	1.2605871
30	0xbd91e2af	-0.071233146
31	0x3e92ed2a	0.28696567
32	0xbd95ff46	-0.0732408
33	0x3d0089de	0.03138148
34	0xbe57e86b	-0.21084754
35	0x3d895c41	0.06707049
36	0x3d6083ff	0.05481338
37	0xbdf1da9a	-0.11809273
38	0xbdf42441	-0.119209774
39	0x3e196a5f	0.14981984
40	0xbdf66381	-0.120306976
41	0xbe056619	-0.13027228
42	0x3c157cba	0.009123975
43	0x3e23e055	0.16003545
44	0x3d71ee99	0.059065435
45	0x3d5fe0de	0.05465781
46	0xbca28cf3	-0.0198426
47	0xbd1af65e	-0.03783261
48	0xbd5897fe	-0.052879326
49	0x3d86f344	0.06589368
50	0x3e3c625d	0.18396898
51	0xbdaf5f0f	-0.08563053
52	0xbd93e426	-0.0722125
53	0x3e2cc75a	0.16872922
54	0x3df96201	0.12176896
55	0xbe26c227	-0.16285
56	0x3dbce0ed	0.09222589
57	0xbe24356d	-0.16036005
58	0xbdfd50d5	-0.12368933
59	0x3d89e823	0.0673373
60	0x3d80ac5a	0.062828735
61	0x3e2d7a32	0.16941145
62	0x3d633641	0.055471662
63	0x3c5d7097	0.013515613
64	0x3e4be4dd	0.19911523
65	0x3deeb7b3	0.116561316
66	0xbe6807df	-0.22659253
67	0xbd2dee3a	-0.04246352
68	0xbe135378	-0.1438731
69	0xbd8a5961	-0.06755329
70	0xbcf796b6	-0.030223232
71	0xbe379710	-0.1792872
72	0xbdf70c9f	-0.12062954
73	0xbd2bc382	-0.041934498
74	0xbd9010a4	-0.07034424
75	0xbd79fe81	-0.06103373
76	0x3e1d25e5	0.15346487
77	0xbd31f018	-0.043441862
78	0x3e00570d	0.12533207
79	0x3de7b009	0.11312873
80	0x3c988b7a	0.018621195
81	0xbd86854c	-0.06568393
82	0xb8bc4743	-8.977812e-05
83	0x3d2cfb2b	0.04223172
84	0xbe36faf9	-0.17869176
85	0x3e14c575	0.14528449
86	0xbe511c92	-0.20421055
87	0x3dbc38d9	0.0919053
88	0x3db1b65b	0.0867736
89	0xbe02bfc5	-0.12768467
90	0x3df6e795	0.120558895
91	0x3dfccc4e	0.123436555
92	0xbda83178	-0.082125604
93	0xbdb20421	-0.08692194
94	0xbdbf85c8	-0.093516886
95	0x3e00c186	0.12573823
96	0xbde2c505	-0.11072735
97	0xbd79188d	-0.06081443
98	0x3ff4bb41	1.9119645
99	0x3e86128e	0.2618603
100	0x3e5cc374	0.21558934
101	0x3d20cfdb	0.039260726
102	0x3e740619	0.23830451
103	0x3ec19de4	0.37815773
104	0x3cc7e06a	0.024399001
105	0x3d747400	0.05968094
106	0xbe649885	-0.22323807
107	0xbf428d6f	-0.7599706
108	0x3f487d80	0.783165
109	0xbe80324c	-0.25038373
110	0x3e07a1da	0.13245335
111	0xbb7a4942	-0.0038190638
112	0x3efa506a	0.48889476
113	0x3da4473f	0.080214016
114	0xbd8e7695	-0.069562115
115	0x3f0b3b87	0.54387707
116	0xbebecda9	-0.3726628
117	0xbe4af2f3	-0.1981924
118	0x3c61b0b4	0.013775039
119	0xbee25eee	-0.4421305
120	0xbe64acc3	-0.22331528
121	0xbd93edf2	-0.07223119
122	0x3e001dd7	0.12511383
123	0xbe2045e0	-0.15651655
124	0xbc0839ea	-0.008314589
125	0x3f50dccf	0.8158693
126	0xbd26c753	-0.040717434
127	0xbe0ff224	-0.14057213
128	0xbdfcdb93	-0.12346568
129	0xbdb03726	-0.08604269
130	0xbd1bbd88	-0.038022548
131	0x3d44c3f6	0.048038445
132	0xbd3de44d	-0.046360303
133	0xbe824d0f	-0.25449416
134	0x3d30cdb1	0.043164913
135	0x3d94bb36	0.0726227
136	0x3dc2b3c7	0.09506946
137	0xbd3454d9	-0.04402623
138	0x3e04c04f	0.12963985
139	0xbc48f337	-0.012265018
140	0x3c3b982b	0.011449854
141	0x3e2f7a62	0.17136529
142	0x3e56414c	0.20923346
143	0xbe8cad69	-0.2747605
144	0x3de595ff	0.1121025
145	0xbe1c704c	-0.15277213
146	0x3d88c38f	0.06677925
147	0x3db06359	0.08612699
148	0xbe672967	-0.22574387
149	0x3e1a1ac7	0.15049277
150	0xbeb09590	-0.34489107
151	0x3d23266f	0.039831575
152	0x3e09e459	0.13466014
153	0x3e84e781	0.25957873
154	0xbdfc9876	-0.12333767
155	0x3e34eeaa	0.17669168
156	0xbc3b2474	-0.011422265
157	0x3d9b9b0d	0.07597933
158	0x3e40bed8	0.18822801
159	0xbcbc574a	-0.022990841
160	0xbd19295f	-0.03739297
161	0x3e014c40	0.12626743
162	0x3eac1c4a	0.33615333
163	0xbe8a0299	-0.26955107
164	0x3e811f9d	0.25219432
165	0xbd7c6698	-0.06162128
166	0x3dce425e	0.10071252
167	0xbcc3e406	-0.023912441
168	0xbd7c4595	-0.061589796
169	0xbe0919ac	-0.133887
170	0xbc7ac543	-0.01530582
171	0x3e04dc8f	0.12974761
172	0x3e5ffb9a	0.21873322
173	0xbde0f0ee	-0.10983454
174	0x3e3d1768	0.1846596
175	0xbccd0f55	-0.025031725
176	0xbdb0696a	-0.08613856
177	0xbe442784	-0.19155699
178	0x3cb522b6	0.022111278
179	0x3ee01d2c	0.43772256
180	0xbd09ede2	-0.03367413
181	0x3c4dfa18	0.012571834
182	0xbe925e30	-0.28587484
183	0x3de80c9b	0.11330529
184	0x3e3440cd	0.17602845
185	0x3de5b5f9	0.11216349
186	0xbdd9749f	-0.10617947
187	0xb9aeddec	-0.0003335321
188	0x3b6f0b3c	0.0036475202
189	0x3f1e0fea	0.6174303
190	0x3b648b14	0.0034872936
191	0x3bff67a3	0.007794337
192	0xbbc10feb	-0.00589179
193	0xbd4c5526	-0.04988589
194	0xbe061997	-0.13095699
195	0xbe6f8187	-0.23389255
196	0x3ec8994a	0.3917945
197	0x3efd4c4d	0.49472275
198	0x3da2b69e	0.07944988
199	0xbf758ac7	-0.9591488
200	0x3afc0a71	0.0019229186
201	0x3c9870c3	0.018608456
202	0x3e653041	0.22381689
203	0xbecb74f6	-0.39737672
204	0xbf0c3231	-0.54764086
205	0x3e84280d	0.25811806
206	0x3cc8b068	0.02449818
207	0xbeb0069a	-0.34380037
208	0xbe7bd0a4	-0.24591309
209	0xbde33261	-0.110935934
210	0x3df391e5	0.118930615
211	0xbefcee7f	-0.49400708
212	0x3f0c22e2	0.54740727
213	0xbde9ec45	-0.11422018
214	0xbeed0b52	-0.462977
215	0x3d39c3d6	0.04535278
216	0x3eb78244	0.35841572
217	0xbbe98862	-0.007126854
218	0x3ee69507	0.45035574
219	0xbf3f372b	-0.74693555
220	0xbcd0e026	-0.025497507
221	0x3f359dc9	0.70943886
222	0xbdd13d6b	-0.10216793
223	0x3ee997a3	0.45623502
224	0x3e057d57	0.13036095
225	0x3e1591ec	0.14606446
226	0xbe8739d4	-0.26411307
227	0x3ad50ad9	0.0016253843
228	0x3e7aa3e7	0.24476586
229	0xbdd62236	-0.10455744
230	0x3dafd635	0.085857786
231	0xbd87fba3	-0.06639793
232	0xbe06bac6	-0.13157186
233	0x3dc971db	0.09836169
234	0x3e1b6188	0.15173924
235	0x3e9f134e	0.31069416
236	0xbcd812a8	-0.026376083
237	0x3e0654d5	0.13118298
238	0x3d25c628	0.04047218
239	0xbdcf1113	-0.101106785
240	0x3d51c3d2	0.05121214
241	0xbe44a46b	-0.19203345
242	0x3dcda700	0.10041618
243	0x3c2eec99	0.010676526
244	0xbe7663a0	-0.24061441
245	0xbd9a9b70	-0.075491786
246	0x3e3ee7ce	0.18643114
247	0xbd2d9cb7	-0.042385783
248	0x3cba7f77	0.022765858
249	0x3d831432	0.06400336
250	0x3e0e5a71	0.13901688
251	0x3d138b19	0.036021326
252	0xbc8d5c38	-0.017255887
253	0xbe4be2ef	-0.19910787
254	0xbe437a56	-0.19089636
255	0xbd80da83	-0.06291678

weight_hh_l1 f4 [128, 32]
0	0x3e44bc14	0.19212371
1	0xbd00deb8	-0.0314624
2	0x3d429ea9	0.04751459
3	0xbd9799ef	-0.074024074
4	0x3f166520	0.58748055
5	0xbe4e0e2c	-0.20122594
6	0xbb2c6cd2	-0.002630998
7	0xbee9f428	-0.4569409
8	0x3e3c8b3d	0.1841249
9	0x3dd46312	0.10370459
10	0xbee3832d	-0.44436017
11	0xbddb7917	-0.107164554
12	0x3f0d6e34	0.5524628
13	0x3def4990	0.11683953
14	0x3c4e560f	0.01259376
15	0x3e156b19	0.14591636
16	0x3c43dd55	0.011954625
17	0x3ead6c2b	0.33871588
18	0xbe81ebb7	-0.2537515
19	0xbecaf9f9	-0.3964384
20	0xbe955606	-0.29167193
21	0x3de55186	0.1119719
22	0xbe713649	-0.23555864
23	0xbdc049f9	-0.09389109
24	0x3ebc24aa	0.36746722
25	0x3e3817e0	0.17977858
26	0x3d8fc68b	0.07020291
27	0xbe82fd46	-0.25583857
28	0xbcb9fa9c	-0.022702508
29	0x3dfdcaeb	0.12392219
30	0xbd571162	-0.052506812
31	0xbe906b55	-0.28206888
32	0x3dbc5647	0.091961436
33	0x3dd98953	0.10621896
34	0xbd9998af	-0.07499825
35	0xbc1dc78b	-0.009630094
36	0x3e25e3c9	0.16200174
37	0xbd3a0702	-0.04541684
38	0x3e20fe4c	0.15722007
39	0x3dba4eb1	0.090970404
40	0x3da0c47c	0.078499764
41	0x3e1a16c7	0.15047751
42	0xbe1c2ef3	-0.15252285
43	0xbc06c8b6	-0.008226564
44	0x3dd7292d	0.105059005
45	0xbd717638	-0.058950633
46	0xbe4362f4	-0.19080716
47	0x3d20dfde	0.039275996
48	0x3d669c6f	0.05630153
49	0x3da2f89d	0.079575755
50	0xbe2d6521	-0.16933109
51	0x3cab0fe0	0.020881593
52	0xbe6d7c29	-0.23191895
53	0xbd8428a7	-0.06453066
54	0xbdf8bdb6	-0.121455595
55	0x3b8dcb9a	0.0043272497
56	0xbe26069d	-0.1621346
57	0x3b2097d4	0.002450456
58	0x3df8273b	0.121168576
59	0xbbfd8e6d	-0.0077379257
60	0x3c8e329d	0.017358119
61	0x3d323532	0.043507762
62	0xbe02f74f	-0.12789653
63	0xbe2f03cc	-0.17091292
64	0x3d8d320a	0.0689431
65	0x3ddaa556	0.106760666
66	0xbdfbcc7f	-0.12294864
67	0x3e22a298	0.15882337
68	0xbe273491	-0.16328646
69	0xbe0f4946	-0.13992795
70	0x3e4c188f	0.19931243
71	0x3d622353	0.05520947
72	0x3d6cf408	0.057849914
73	0x3e301e60	0.17199087
74	0xbdff6789	-0.1247092
75	0x3e4c7067	0.19964753
76	0xbd8b4822	-0.068008676
77	0x3e39f7fa	0.18161002
78	0x3d23b780	0.03996992
79	0xbdfd1dea	-0.12359221
80	0x3ca01ed2	0.019545946
81	0xbcd77315	-0.026299993
82	0x3d483b35	0.04888459
83	0xbdccbcac	-0.09996924
84	0x3ea19fd0	0.3156724
85	0xbda2c928	-0.07948524
86	0x3d1f96ca	0.038962163
87	0x3e04e1b7	0.12976728
88	0xbcd2445a	-0.025667358
89	0x3cbd66e0	0.023120344
90	0x3e0ca413	0.13734464
91	0xbd9af6e9	-0.075666256
92	0x3c417512	0.011807697
93	0xbdab6b88	-0.08370119
94	0x3e23674c	0.15957373
95	0xbe195b59	-0.14976253
96	0x3eb7c984	0.35895932
97	0x3ee14707	0.43999502
98	0x3c8eae7a	0.017417181
99	0xbd3a21ed	-0.04544251
100	0x3e61e65b	0.2206053
101	0x3c9327ca	0.017963309
102	0xbf147331	-0.5798827
103	0x3eaab744	0.33342946
104	0x3ea2c913	0.31794032
105	0xbd48cecc	-0.049025342
106	0xbd853bf6	-0.06505577
107	0x3e3e1691	0.18563296
108	0xbd934766	-0.071913525
109	0xbec4c7fe	-0.38433832
110	0x3ee0b5c0	0.43888664
111	0xbdeb3219	-0.11484165
112	0x3ee7b1af	0.4525275
113	0x3da4af45	0.080412425
114	0xbd944d87	-0.0724135
115	0xbe99297e	-0.2991447
116	0xbe178fa3	-0.14800887
117	0xbe797cf3	-0.2436407
118	0x3e9029c2	0.2815686
119	0xbcafd885	-0.02146555
120	0x3b7c2c4d	0.0038478554
121	0xbf03d407	-0.51495403
122	0xbe1d76c9	-0.15377344
123	0xbe31ca1b	-0.17362253
124	0xbc733a0c	-0.014845382
125	0xbe807934	-0.2509247
126	0xbd315ace	-0.04329949
127	0x3ded452e	0.115854606
128	0xbd8feb72	-0.070273295
129	0xbdd9d3a1	-0.10636068
130	0xbe0d9953	-0.1382802
131	0x3dcfc308	0.10144621
132	0x3e1d3c9e	0.15355155
133	0xbc0e195e	-0.00867304
134	0xbc2baafc	-0.010477778
135	0x3e60855d	0.21925874
136	0xbdc8db2b	-0.09807428
137	0x3e16a735	0.14712222
138	0xbc5876e5	-0.01321194
139	0xbc37ba07	-0.011213786
140	0x3aab5e0e	0.0013074295
141	0xbde1fd8a	-0.11034687
142	0xbe539da6	-0.20665607
143	0x3d4900f5	0.04907318
144	0xbd5edb3f	-0.054408308
145	0x3e7109f4	0.23538953
146	0x3c8bcca3	0.017065352
147	0xbd43024d	-0.047609616
148	0xbe53b858	-0.2067579
149	0xbe66daef	-0.22544454
150	0x3cf192df	0.029488979
151	0x3e151d7d	0.1456203
152	0x3cfb0f4a	0.030646939
153	0xbcbf6455	-0.023363272
154	0x3d4d2fb2	0.050094314
155	0x3e217110	0.15765786
156	0xbe1fa666	-0.1559082
157	0xbe190fb3	-0.14947395
158	0xbdf1eb0e	-0.11812411
159	0x3da7725c	0.08176109
160	0xbce3354e	-0.027735379
161	0xbd83ab7f	-0.06429195
162	0x3e342800	0.17593384
163	0xbd8044bc	-0.0626311
164	0x3cc0a95c	0.023518257
165	0xbdd53d3b	-0.104120694
166	0xbe9458a3	-0.28973874
167	0xbdc71873	-0.0972146
168	0x3edceb9f	0.43148515
169	0xbe4aaffa	-0.19793692
170	0xbbc0e07e	-0.0058861366
171	0xbf13e9d2	-0.57778656
172	0xbda7c2c9	-0.08191449
173	0x3e69493d	0.22781844
174	0x3ec7fa1d	0.3905801
175	0xbe240077	-0.16015802
176	0x3e15db64	0.14634472
177	0x3e1079c1	0.14108945
178	0x3e07f11b	0.13275568
179	0x3d8899ad	0.06669936
180	0x3c4d1f32	0.012519645
181	0xbdedf3ba	-0.11618753
182	0xbf1e95ce	-0.61947334
183	0xbe56dd81	-0.20982935
184	0x3d1bfef0	0.038084924
185	0x3c41c938	0.011827759
186	0xbdf78170	-0.12085235
187	0xbba1e8d9	-0.0049410877
188	0xbddbbec7	-0.10729747
189	0xbd10f902	-0.035393722
190	0xbe42c4c7	-0.19020377
191	0xbe7526ce	-0.23940584
192	0x3f9126c8	1.133996
193	0xbec46751	-0.38360074
194	0x3e4cae50	0.1998837
195	0xbd579379	-0.052630875
196	0x3f8c325c	1.0952868
197	0x3ec758e5	0.3893501
198	0x3e11ea7d	0.14249606
199	0xbea979cb	-0.33100733
200	0x3f5b3b84	0.8563769
201	0xbd804ade	-0.0626428
202	0xbf0d88f7	-0.55287117
203	0xbf5e1c1d	-0.8676165
204	0x3dc303ac	0.09522185
205	0x3f639881	0.8890458
206	0x3d52ae42	0.051435716
207	0x3d8ada64	0.06779936
208	0x3e122b0f	0.14274238
209	0xbe875177	-0.2642934
210	0xbf3b022d	-0.73050195
211	0xbe3887d6	-0.18020567
212	0x3f7211b5	0.9455827
213	0x3ea989af	0.33112857
214	0xbf84ef45	-1.0385519
215	0xbe29637a	-0.16541854
216	0x3ed657c0	0.41863823
217	0x3f2b8cf3	0.67011946
218	0x3e88c66a	0.26713878
219	0xbcc0c9ba	-0.02353369
220	0x3ed99701	0.4249802
221	0x3dfbeb29	0.123007126
222	0xbcb32e47	-0.021872653
223	0xbec79262	-0.3897887
224	0xbc8c6447	-0.01713766
225	0xbe16ad0d	-0.14714451
226	0xbe2e3d15	-0.17015488
227	0xbde3bdec	-0.11120209
228	0xbddb4d61	-0.10708118
229	0xbe400590	-0.18752122
230	0x3eb788e1	0.35846618
231	0xbd80017a	-0.06250282
232	0x3d94dc3f	0.07268571
233	0x3e12d9ff	0.14340971
234	0x3da27b23	0.07933643
235	0x3e224a65	0.15848692
236	0x3d8fead2	0.0702721
237	0xbda08cd9	-0.078393646
238	0xbd3babd6	-0.045818172
239	0x3ea8c24f	0.32960746
240	0xbe5ef150	-0.21771741
241	0x3e3df1c9	0.18549265
242	0xbd83c55e	-0.06434129
243	0x3e4a2cdb	0.19743674
244	0xbe8496c7	-0.25896284
245	0x3c57f2ad	0.013180417
246	0xbdb251e9	-0.08707029
247	0x3e3400de	0.17578456
248	0x3dc7e4d9	0.09760446
249	0x3d2adbc5	0.041713495
250	0xbe12ef82	-0.14349177
251	0x3e53dd63	0.20689921
252	0x3bf59e31	0.0074956645
253	0x3c54bf54	0.012985069
254	0x3d756e67	0.05991974
255	0xbdaae182	-0.083437935

bias_ih_l1 f4 [128]
0	0x3ed9ad37	0.42514965
1	0xbdabcb30	-0.08388364
2	0xbe1cca0d	-0.15311451
3	0xbd9d99c2	-0.076953426
4	0x3e0b0c49	0.13578905
5	0x3de8dad0	0.1136986
6	0x3e27ea78	0.16398036
7	0xbd59712f	-0.053086456
8	0xbc9094c7	-0.017649068
9	0x3d1a14a9	0.03761736
10	0x3d57ab09	0.052653346
11	0xbccb4d95	-0.024817267
12	0xbe1f456d	-0.15553828
13	0x3da87f17	0.082273655
14	0xbdcc8ece	-0.09988175
15	0xbe636940	-0.22208118
16	0x3dde485c	0.10853645
17	0xbdcd04ea	-0.10010703
18	0xbd161b0e	-0.036646895
19	0xbd856cfc	-0.06514928
20	0xbcd76e9e	-0.026297864
21	0x3e31e42a	0.17372194
22	0xbdbf74c0	-0.0934844
23	0x3e0e22f1	0.13880517
24	0x3ddbaf61	0.1072681
25	0xbde7acde	-0.11312269
26	0x3d859cbf	0.065240376
27	0xbdbe0bc0	-0.09279585
28	0xbd563601	-0.052297596
29	0xbd921a5a	-0.071339324
30	0x3e41948b	0.18904321
31	0x3d95406f	0.0728768
32	0x3df17533	0.11789932
33	0x3de81d4a	0.113337114
34	0xbe270da7	-0.16313802
35	0xbe39f4a4	-0.18159729
36	0xbd0b012b	-0.03393666
37	0x3cd8a6b6	0.026446681
38	0x3e045c35	0.12925799
39	0x3e48003b	0.19531338
40	0xbe99ef54	-0.30065405
41	0x3c1b5706	0.009481197
42	0x3e185f07	0.1488
43	0xbdfb38fd	-0.12266729
44	0x3dd387e1	0.10328651
45	0xbdf8f29c	-0.12155649
46	0xbe0da574	-0.13832647
47	0xbe701e4b	-0.23449056
48	0xbe17e3b0	-0.1483295
49	0xbe235783	-0.15951352
50	0xbe1edb84	-0.15513426
51	0xbccca432	-0.024980638
52	0x3d0db56e	0.034596853
53	0x3da63f6c	0.081175655
54	0x3d6fc32f	0.05853575
55	0x3d61aca4	0.055096284
56	0x3de1ac37	0.110191755
57	0xbc0251be	-0.007954059
58	0xbdfe6d11	-0.124231465
59	0xbdd5501d	-0.10415671
60	0x3d9d1ee6	0.07671909
61	0x3d6b0f47	0.057387616
62	0xbc780b7e	-0.015139459
63	0x3d53a37c	0.051669583
64	0x3c9b7a27	0.018979145
65	0xbc3fd4a5	-0.011708413
66	0xbdfb9acc	-0.122853845
67	0x3de98546	0.11402373
68	0xbe2a841f	-0.16651963
69	0xbdb272ae	-0.0871328
70	0x3e0aefa3	0.13567977
71	0xbdef9f22	-0.11700274
72	0x3d3f0c72	0.04664273
73	0x3c869096	0.016426366
74	0x3e001936	0.12509617
75	0xbdfe4784	-0.12415984
76	0x3d3c6b06	0.046000503
77	0x3e40bfef	0.18823217
78	0xbd26a5e5	-0.040685553
79	0xbe254180	-0.16138268
80	0xbd1871bd	-0.037217844
81	0x3db8d6ea	0.090253666
82	0xbdebad9b	-0.11507722
83	0x3dcaaa6a	0.09895785
84	0x3e00c2b5	0.12574275
85	0x3e0e87e9	0.13919033
86	0xbd3b2e74	-0.045698598
87	0x3d35e237	0.04440519
88	0x3e111da9	0.1417147
89	0x3d4268df	0.047463294
90	0x3d768fe9	0.060195837
91	0x3d4ddd28	0.05025974
92	0x3e0a64a4	0.13514954
93	0x3ddd8e6a	0.10818179
94	0x3d95c5cb	0.07313117
95	0xbc37c486	-0.011216288
96	0x3de2418f	0.110476606
97	0x3e0f81ec	0.14014405
98	0xbd7877c8	-0.060661107
99	0xbd3f8ff7	-0.046768155
100	0x3c9834fe	0.018579956
101	0x3e4497a9	0.19198479
102	0x3e110bb0	0.14164615
103	0xbbde54a5	-0.0067849928
104	0x3c10a6e0	0.008828849
105	0x3dee3bcf	0.11632501
106	0x3e1f3679	0.15548123
107	0x3e0d3242	0.13788703
108	0x3cc5dd75	0.02415345
109	0xbdf57427	-0.11985045
110	0xbe3a998e	-0.18222639
111	0xbe0d1a78	-0.13779628
112	0x3e0377d5	0.12838681
113	0x3e340048	0.17578232
114	0x3e191b45	0.14951809
115	0x3d9a17bc	0.07524058
116	0x3e607814	0.21920806
117	0xbbed4e0a	-0.007241969
118	0xbdff6fc7	-0.12472492
119	0x3b1fe77b	0.0024399448
120	0xbe065564	-0.13118511
121	0x3db48117	0.088136844
122	0x3e19d229	0.15021576
123	0x3e11f9e6	0.14255485
124	0xbd99bda8	-0.07506877
125	0xbd0e8781	-0.034797195
126	0x3db86da2	0.09005286
127	0xbd394ee7	-0.045241263

bias_hh_l1 f4 [128]
0	0x3e8317e4	0.25604165
1	0xbda35d84	-0.07976821
2	0xbd09ca75	-0.033640344
3	0xbcdf4240	-0.02725327
4	0xbe122999	-0.14273681
5	0xbd9e3d98	-0.07726592
6	0x3ec37c23	0.38180646
7	0x3d285307	0.041094806
8	0xbd5bbdb0	-0.053647697
9	0x3d1b7381	0.03795195
10	0x3e3fad7e	0.18718526
11	0x3e39a812	0.1813052
12	0x3da6a1a2	0.08136298
13	0x3d59f5b0	0.05321282
14	0x3d33563e	0.04378342
15	0x3caddfe9	0.021224933
16	0xbdc5f73a	-0.09666295
17	0x3bf660e1	0.007518873
18	0x3de8d09c	0.11367914
19	0x3e2314fa	0.1592597
20	0x3e8bdeae	0.2731833
21	0xbdfc257d	-0.12311838
22	0x3d9d62c0	0.07684851
23	0x3d3906bd	0.04517244
24	0x3df199a3	0.11796882
25	0xbd92022e	-0.07129322
26	0xbde25a9b	-0.11052438
27	0x3d200df8	0.03907582
28	0x3d7d332a	0.061816372
29	0x3e1ec48c	0.15504664
30	0x3e645c4c	0.22300833
31	0x3e331a97	0.17490612
32	0x3e901115	0.28138033
33	0xbceb8442	-0.028749589
34	0xbbb1851c	-0.005417479
35	0xbda409e2	-0.080096975
36	0x3da2a0e6	0.07940845
37	0x3d768ab0	0.060190856
38	0x3d599338	0.053118914
39	0xbdd9fec9	-0.106442995
40	0xbe9e5dc8	-0.30930924
41	0xbe1a8721	-0.1509061
42	0x3e101078	0.14068782
43	0x3c340a23	0.010988745
44	0x3c88bb7e	0.016690966
45	0xbe070f3a	-0.13189402
46	0x3da06d04	0.07833293
47	0xbe6a50ba	-0.22882357
48	0xbda58adb	-0.08083125
49	0x3df2c88a	0.11854656
50	0xbe0eb08d	-0.13934536
51	0xbd4c8a40	-0.049936533
52	0xbc91b78f	-0.017787723
53	0xbd0a6523	-0.033787858
54	0x3d783125	0.060593743
55	0x3e0bf863	0.13668971
56	0xbe34d81d	-0.17660566
57	0xbe085add	-0.13315912
58	0xbe22af49	-0.15887178
59	0x3df8f714	0.121565014
60	0xbdf4e506	-0.11957745
61	0x3e0928d5	0.13394482
62	0x3e37148f	0.17878936
63	0xbe1525ec	-0.14565247
64	0x3d881021	0.06643701
65	0xbd81e473	-0.06342401
66	0x3e210aeb	0.15726821
67	0xbd6924bb	-0.056919795
68	0x3e26a2f3	0.16273098
69	0xbe1d199e	-0.15341803
70	0x3e5ce788	0.21572697
71	0x3d64c634	0.055853084
72	0xbdab87af	-0.08375489
73	0xbcc1911b	-0.023628762
74	0xbde07936	-0.10960619
75	0xbcfec17f	-0.031098126
76	0x3d6f9c6c	0.058498785
77	0x3ce664df	0.028124271
78	0xbd61759e	-0.05504381
79	0x3e003607	0.1252061
80	0x3e034df7	0.1282271
81	0x3df75e31	0.120785125
82	0xbe1736cc	-0.14766997
83	0x3deaf610	0.11472714
84	0xbe3eb81f	-0.18624924
85	0x3d7feed7	0.062483635
86	0xbe1c4748	-0.15261567
87	0x3dab2ced	0.08358178
88	0x3e214a5e	0.15751025
89	0x3dadd96c	0.084887356
90	0x3d653c81	0.055965904
91	0xbd96356f	-0.073344104
92	0xbe3c2453	-0.18373232
93	0x3d129ef1	0.03579611
94	0xbe3ac355	-0.18238576
95	0xbdece2a7	-0.11566668
96	0x3e0c2807	0.13687144
97	0x3e02acfc	0.12761301
98	0xbdcde04e	-0.10052548
99	0xbe3575a4	-0.17720658
100	0xbd720ab8	-0.059092253
101	0x3e849a5c	0.25899017
102	0x3e898048	0.26855683
103	0x3e248369	0.16065754
104	0x3ce3b041	0.027794005
105	0x3e0630e0	0.13104582
106	0xbcf3d50d	-0.029764676
107	0x3e669d5b	0.22520964
108	0x3da70cfd	0.08156774
109	0x3dcb2c1b	0.09920522
110	0xbe177d6a	-0.14793935
111	0xbe2a7c1b	-0.16648905
112	0xbd582f96	-0.052779756
113	0xbde373f3	-0.111061
114	0x3c559f3a	0.013038451
115	0xbd7736ea	-0.060355105
116	0x3de79a00	0.1130867
117	0xbdfc8c32	-0.12331428
118	0x3b25dfe0	0.0025310442
119	0xbdbc4b2d	-0.09194026
120	0xbc47fdca	-0.012206504
121	0xbe12e016	-0.14343295
122	0xbdd320a6	-0.103089616
123	0x3c807817	0.015682263
124	0xbd959149	-0.073031016
125	0xbe34b8d1	-0.17648627
126	0xbd80a424	-0.06281307
127	0x3cda605e	0.02665728

weight f4 [1, 32]
0	0xbd9b358c	-0.07578573
1	0xbd017c01	-0.0316124
2	0x3de25ce8	0.11052877
3	0xbdf2bce5	-0.11852435
4	0x3d980802	0.07423402
5	0x3d59977e	0.05312299
6	0xbe523cf7	-0.20531069
7	0xbe1e4d56	-0.15459189
8	0x3d437fc0	0.047729254
9	0xbe2ecb17	-0.1706966
10	0xbd4d6552	-0.050145455
11	0xbe898f64	-0.2686721
12	0x3b8ee964	0.0043613184
13	0x3e211d9f	0.15733956
14	0x3d1d7b9c	0.03844796
15	0xbd873524	-0.06601933
16	0x3da4f51d	0.08054564
17	0xbd9c258f	-0.07624351
18	0xbe31e1b4	-0.17371255
19	0xbe163c67	-0.14671479
20	0x3e81f1f7	0.25379917
21	0xbdeaff5b	-0.114744864
22	0xbe1934bc	-0.14961523
23	0xbe0dce26	-0.1384817
24	0x3d821fc9	0.06353719
25	0x3db5b1a6	0.088717744
26	0x3d646bed	0.05576699
27	0xbe309b81	-0.1724682
28	0x3d646a3b	0.05576537
29	0x3de24577	0.110484056
30	0xbe497a91	-0.19675662
31	0xbda33722	-0.079695
