Fokas_cup/Data/Model/LSTM_B.pt (torch, 55495 bytes, 9 tensors)

weight_ih_l0 f4 [128, 1]
000000 a6 1b dc 3e 71 a0 e2 be cb 8c 21 3e e1 c8 8d be
       0.42989844 -0.44263032 0.15776365 -0.2769232
000010 5a a8 88 ba ea 1b 0b 3c d6 17 db 3d 06 e9 a3 be
       -0.0010426149 0.008490542 0.10697906 -0.3201372
000020 bd e4 de bc 4c 65 9d bd 1f 94 f2 3e c9 d2 90 be
       -0.02720868 -0.076853365 0.47378632 -0.28285816
000030 9b ab e3 3d e2 d8 bc 3c 1b e3 39 be e4 58 52 3e
       0.111167155 0.023052637 -0.1815304 0.20541722
000040 0d 7a 7b be bc d6 3b be 7e 17 94 be 24 5d 02 3e
       -0.24558277 -0.18343633 -0.28924173 0.12730843
000050 a0 99 07 3f 56 7f 0d bd 7e 90 e8 3d f2 67 81 3e
       0.5296879 -0.034545265 0.11355685 0.25274616
000060 0c 63 c4 be 48 69 ce be 53 bb ba be 42 93 11 3c
       -0.38356817 -0.40314698 -0.36471042 0.008885207
000070 48 62 2a be bd 0e 00 3e b9 cc 38 be d0 a4 06 bc
       -0.16639054 0.12505622 -0.18046845 -0.008218005
000080 c3 05 82 3e a9 e8 7c be 4f 24 cb 3e 9c 0c 63 be
       0.2539502 -0.24698128 0.3967614 -0.22172779
000090 3e 97 83 bd 2c d6 99 bd be 95 89 3c 80 b9 ad be
       -0.064253315 -0.07511553 0.016795035 -0.33930588
0000a0 ce 9b 31 be 0e 6c a2 3d c1 64 c1 3e ac 05 3f be
       -0.17344591 0.07930766 0.37772182 -0.18654507
0000b0 47 9d a8 3d ca 5a ed bd e6 d1 c4 be 78 31 0e 3e
       0.08233123 -0.11589582 -0.3844139 0.13886058
0000c0 a5 54 ac be 69 dd 78 be 83 68 0c bd 3c 09 58 3e
       -0.3365833 -0.24303211 -0.034279358 0.21097273
0000d0 c6 32 77 3f b1 ab ac 3d 50 60 83 3d 83 a5 6e 3e
       0.9656185 0.08431185 0.064148545 0.23305325
0000e0 f9 3d a3 be dd 1a 62 bd 52 9b 91 bd 12 c2 72 3e
       -0.3188322 -0.0552014 -0.07109703 0.23706844
0000f0 5f 23 55 bc aa c5 14 be d7 50 89 be 5b 4b 25 3d
       -0.013008921 -0.14528528 -0.26819488 0.040355068
000100 3a 86 02 3f 04 66 45 3f 29 b7 9b 3e 5e 17 cc 3e
       0.50986063 0.7710879 0.30413178 0.39861578
000110 fd b9 83 be e8 cf c2 38 d1 d4 75 bd fd af bc be
       -0.25727835 9.2893664e-05 -0.06001741 -0.36853018
000120 d2 34 02 3e 2a cd e7 be 0b 92 b8 be a8 c8 ba be
       0.12715462 -0.45273715 -0.36048922 -0.36481214
000130 7e 4c c6 bd c5 bc 2b be 49 13 54 3e 88 f4 a0 be
       -0.096825585 -0.16771229 0.20710482 -0.31436563
000140 c9 93 e9 3e 9c da c6 3e 4f 8e b9 be af 61 d2 be
       0.45620564 0.3883866 -0.36241385 -0.41090152
000150 de b1 cc be b1 41 d1 be 62 ad 96 be b8 ba 7a 3e
       -0.39979452 -0.4087043 -0.29429156 0.2448529
000160 82 58 e7 be 76 59 0b bf 26 d3 c8 3e 06 c9 aa 3d
       -0.45184714 -0.5443338 0.39223593 0.083391234
000170 75 1a 05 bc 78 07 b7 be 64 38 d1 3e e7 df 90 be
       -0.008123984 -0.35747886 0.40863335 -0.28295824
000180 c2 26 0c 3f 41 c4 84 be f4 23 ee 3e 04 3c 8f be
       0.5474664 -0.2593098 0.46511805 -0.27975476
000190 46 73 95 3a 13 8d a3 be 3e d1 f0 3d 19 43 1d be
       0.0011402152 -0.3194357 0.1175866 -0.15357627
0001a0 d8 24 6b 3c df cc dd 3b 3b f5 da 3e 6a ad 0b be
       0.014352046 0.0067688073 0.4276522 -0.13640371
0001b0 2b 58 fd 3c 6b 27 32 3e 03 57 82 be 70 84 80 3d
       0.03092583 0.1739785 -0.2545701 0.062752604
0001c0 94 dc 88 be ce 46 b3 be 4f 4f 15 be f7 1c 98 3e
       -0.26730788 -0.35014957 -0.14581035 0.29709598
0001d0 a9 a0 53 3f da fc 67 3e 81 1c 1d 3c fe 6d 4c 3d
       0.8266702 0.22655049 0.009589315 0.049909584
0001e0 cd d0 9d be c1 3a 32 bf ab 5b 6b be ed 23 08 3e
       -0.30823365 -0.696209 -0.22984187 0.13294955
0001f0 a4 32 10 be aa 78 62 be 7a ab fa bd 8f 61 06 be
       -0.14081818 -0.22116342 -0.12239738 -0.13123153

weight_hh_l0 f4 [128, 32]
000000 e2 9d a0 3d 2d 50 3a 3e 7b e6 ac 3e be e1 ae 3d
       0.07842614 0.18194647 0.33769593 0.08539151
000010 9f 4e b4 3c 66 f6 11 3d 10 95 84 be f0 cc 04 bc
       0.022010146 0.035635374 -0.25894976 -0.0081055015
000020 85 8a b0 bb 13 78 b5 bc 5d 7d a3 bd ae 56 be bc
       -0.0053876066 -0.022151982 -0.079828955 -0.023234691
000030 69 a7 72 3d 51 18 81 3c 76 a2 0d bc 79 f1 eb 3d
       0.059241686 0.015758665 -0.008644691 0.11520667
000040 78 64 44 3d d9 9c c3 3d 0b 33 2c bd 9c 7d 93 bd
       0.047947377 0.09551401 -0.042040866 -0.072016925
000050 69 f1 62 be ef fd ad bd ec c6 a7 bd ec 12 9b 3d
       -0.22162403 -0.084956996 -0.08192238 0.075719684
000060 6d 8d 94 3d cc 53 a9 3e 19 fd 3b 3d 23 d7 a9 be
       0.07253537 0.33071744 0.04589567 -0.3317195
000070 6b cb 25 3d ee a9 53 3e b5 22 9a bd 80 5f b7 3d
       0.040477198 0.20670292 -0.07526151 0.08953762
000080 a6 d6 4b 3f 5a 6d fe be 5e 2d d2 3f 04 1e d6 be
       0.796244 -0.49692804 1.6420095 -0.41819775
000090 d3 a7 50 bd a6 aa e2 3e 64 ec 19 bf 84 dc ce 3e
       -0.0509413 0.4427082 -0.6012633 0.40402615
0000a0 25 5c 40 be eb 68 d7 bd 25 bb cd bf ea 0a f9 3e
       -0.1878515 -0.105180584 -1.6072737 0.4864114
0000b0 4a d0 9f 3e 2c 5b fd 3d 94 53 82 be 56 a4 0d bf
       0.312136 0.12370905 -0.2545439 -0.5532888
0000c0 f9 00 8d be b6 30 88 be 06 95 7c 3e db 67 18 bf
       -0.27539805 -0.26599663 0.24666223 -0.5953347
0000d0 17 2b be bf d1 04 52 3c 4f 60 bb 3d b1 8e ac 3d
       -1.48569 0.012818531 0.09149229 0.08425654
0000e0 cc 20 9d 3e 9c 52 76 3f 21 54 e2 bd 18 09 0d c0
       0.30689085 0.962198 -0.110512026 -2.20368
0000f0 56 0e bd 3c da c5 8f 3e 28 a4 9f be a8 d8 d1 bd
       0.023078125 0.28080636 -0.3117993 -0.10246402
000100 68 6d 74 3e b9 cc a6 3d 4c 86 f3 3e 9e 15 d8 3d
       0.2386986 0.081445165 0.47563398 0.10550998
000110 08 48 66 be 32 65 39 3e 75 54 cd be 0f a2 4e 3e
       -0.22488415 0.18105009 -0.40103498 0.20179008
000120 22 d8 02 3e 55 60 e5 bb 68 65 d4 be 55 fc 3c 3d
       0.1277776 -0.007000009 -0.41483617 0.04613908
000130 1c a5 3d 3d 09 3e 14 3e 8a ab ad bd e7 d1 1d be
       0.04630004 0.1447679 -0.08479984 -0.15412103
000140 10 3e b9 3d 44 76 79 be 37 cd 11 be 40 23 a3 bd
       0.090450406 -0.24361521 -0.1423844 -0.07965708
000150 9d 9e 23 bf 8a 5b 36 be f0 1d d3 3d 40 07 7f 3e
       -0.639139 -0.17808357 0.103084445 0.2490511
000160 df e4 52 bd 8b 7e 5e 3c 1f 2a 38 be d2 1a cf be
       -0.0514878 0.013579975 -0.17984818 -0.4045015
000170 6c 06 cc 3a 27 b0 3f 3d fb b8 b6 bd f4 06 90 be
       0.0015565879 0.04679885 -0.08922001 -0.28130305
000180 91 05 46 bd 93 45 0d 3e bf 8d eb bd 08 03 5f be
       -0.048345152 0.13796072 -0.11501645 -0.217785
000190 0c 13 44 3d 8a b9 2b 3e 68 6f 09 bd c0 48 20 3e
       0.047869727 0.16769996 -0.03355351 0.15652752
0001a0 0d 04 03 3d 9e 9f f7 bd 8f fc 88 bd 71 b2 03 3e
       0.031986285 -0.120909914 -0.06688797 0.12861039
0001b0 8f b8 0a bc 6b b5 1f be 07 31 56 be c0 68 3b bd
       -0.008466854 -0.15596549 -0.2091714 -0.045754194
0001c0 b0 0e aa 3d 17 85 d5 bc a6 ff 03 3d f8 09 0b 3e
       0.08303583 -0.026064439 0.032226227 0.13578022
0001d0 2e bc 0e be 8b a1 46 bd 2b 2b 7f 3c 51 ff d0 3d
       -0.13938972 -0.048493903 0.015574257 0.10204948
0001e0 1d f9 90 bd 59 3d 49 be 72 f1 e8 bc 36 0c c0 3c
       -0.070787646 -0.19652309 -0.028435443 0.023443323
0001f0 56 eb d3 3c 94 e8 0c 3d bb a8 e6 bd 78 b9 c5 bd
       0.025869053 0.03440149 -0.112626515 -0.09654516
000200 b6 5c 22 be f8 52 f3 bd d8 08 46 3e e8 50 7f 3d
       -0.15855679 -0.118810594 0.19339311 0.062333018
000210 bd 5d d2 bc 34 0e af bc 97 6d af bd f5 27 85 be
       -0.025679464 -0.021369077 -0.085658245 -0.26007047
000220 af da 47 be 75 51 07 3e 40 45 80 bd f3 f6 95 3d
       -0.19517015 0.13214667 -0.062632084 0.073224925
000230 58 01 2e 3e b9 bb 83 3d 63 cb cb bc 52 27 53 bd
       0.169927 0.0643229 -0.024877256 -0.05155117
000240 fb 32 0b bc 5d 88 c0 3d 46 6a f2 bd 53 3e 80 3e
       -0.008496041 0.09401009 -0.11836676 0.2504755
000250 72 9b 16 be a2 56 cb 3d 89 21 1f 3e 14 56 84 be
       -0.14707735 0.09928633 0.15540136 -0.25846922
000260 a4 62 80 3c 3e a3 81 3e b8 66 25 bd d0 15 ae be
       0.015672036 0.25319856 -0.040381163 -0.34001017
000270 a9 7f d5 3d 20 9b 3c 3e 78 ae 95 bd 1f 9c 2b bc
       0.1042474 0.1841855 -0.07308668 -0.010474234
000280 2b b7 97 be 69 b0 eb 3c 00 b2 bd bd 97 ab 2d 3e
       -0.29631934 0.028770642 -0.092624664 0.16959988
000290 55 97 91 3d f1 33 f8 bb c6 54 34 3d 2a 00 f2 3d
       0.071089424 -0.0075745513 0.04402616 0.118164375
0002a0 ee af d2 3d d6 fd 20 3e 66 b0 7b bd 35 ae 97 bc
       0.10287462 0.1572183 -0.061447524 -0.018515686
0002b0 ec 71 7e bd 1d 2e 9a bd 75 92 47 3e 5c 87 e1 bd
       -0.062120363 -0.07528327 0.19489463 -0.11012146
0002c0 14 c4 f6 3d d7 6d f2 bc db cd 8e 3d 69 e4 71 3e
       0.12049118 -0.029593391 0.069728576 0.23622288
0002d0 90 f6 0f 3e d2 fa 9a bd e2 1a 35 3e 29 f8 3f 3d
       0.140589 -0.075673714 0.17686036 0.046867523
0002e0 34 ef 10 be 09 8a 90 3e d4 e4 e7 3d b0 bb 9a bd
       -0.14153749 0.28230312 0.113229424 -0.0755533
0002f0 cf 0c 90 3c 7d ec 8a bd 41 39 03 3d 79 f6 a2 bd
       0.017584233 -0.06783388 0.032037023 -0.07957167
000300 f9 61 a6 be 51 02 9d bd 94 48 2a bf 41 26 3f 3e
       -0.32496622 -0.076664574 -0.66516995 0.18666936
000310 72 78 fb 3c 55 5b b1 bd 79 f1 24 3e 68 b3 11 be
       0.030697081 -0.08659998 0.1610774 -0.14228594
000320 71 b6 c0 3e 0a 54 02 be 9a f3 fe 3e c8 b3 2f be
       0.37639192 -0.12727371 0.49795228 -0.17158425
000330 c0 8d f2 3d 05 10 6f 3b d8 d1 84 3e eb 2e c3 3b
       0.11843443 0.0036478054 0.25941348 0.005956521
000340 3b f4 a1 3e 35 c1 8e 3d 79 8e ad be 1e a5 85 bd
       0.31631646 0.06970445 -0.3389776 -0.06525634
000350 84 25 9b 3e f9 46 6f be 22 23 2a 3d 0f 55 93 be
       0.3030206 -0.23366918 0.04153741 -0.28775832
000360 a5 69 01 be ed fa 38 3e b5 72 a5 3e 2e 0e d4 3e
       -0.12637956 0.1806447 0.32314077 0.41417068
000370 1e 51 46 3e 63 92 93 bc 96 d6 4b 3e e2 aa 05 be
       0.19366881 -0.018014139 0.19906077 -0.13053468
000380 85 4f 9c ba 99 56 3d bc e6 64 bb 3d fd 0a 75 bd
       -0.0011925554 -0.011556291 0.09150104 -0.059824932
000390 77 e7 24 3e 94 b2 24 be ce 3d b3 bc 09 5c 13 3e
       0.16103922 -0.16083747 -0.021880057 0.14390577
0003a0 51 a3 98 bd 9e 35 49 3b b0 46 86 be 3f cb 2a 3e
       -0.07453025 0.0030702124 -0.26225805 0.16679095
0003b0 f3 29 89 3c 48 1c 28 3b 19 b5 3a be 72 a4 f2 bd
       0.016743636 0.0025651623 -0.18233146 -0.11847772
0003c0 99 0f 29 be fa c8 15 be 17 3e a4 3d 4a db e3 bd
       -0.16509856 -0.14627448 0.08019655 -0.111258104
0003d0 f4 0b 03 bf 3a 19 47 3d 31 76 1e be 5c d3 55 bd
       -0.51190114 0.048608042 -0.15474774 -0.05220352
0003e0 dc 0e 5b 3e 9e 6d 76 3e 75 b5 23 be dc 43 1c be
       0.21392387 0.24065253 -0.15987189 -0.15260261
0003f0 bb 3c 23 3e 6f 4f 30 be 5f e5 21 3d 1d 1c 0d 3e
       0.15941136 -0.17217802 0.039525386 0.13780256

bias_ih_l0 f4 [128]
000000 67 b5 57 3e 8f ce ba 3e 60 b1 93 bc 4c c3 24 3d
       0.21065293 0.36485717 -0.018028915 0.040225312
000010 dc 84 9b bc 04 a3 3f be 9a a1 00 be 82 40 af 3d
       -0.01898425 -0.1871453 -0.12561646 0.08557226
000020 40 0f 1e bd 38 45 0d 3d ed 84 59 3e df 94 f5 3c
       -0.038588762 0.03448984 0.21242113 0.029978214
000030 9c 81 24 be ee 72 10 3c 0f d1 8f 3d ec 86 97 3d
       -0.16065067 0.008816464 0.07022297 0.07398781
000040 89 8e d2 3d 49 00 77 3e 00 62 4e bb 02 d2 61 3e
       0.10281093 0.24121203 -0.0031491518 0.22052768
000050 ef e8 28 3e d9 8b 36 3d d5 24 bd 3d 39 3e 02 3e
       0.16495107 0.044566963 0.09235541 0.12719049
000060 dd 48 2d 3c 27 47 89 3e c2 ef 20 3e 39 b3 3e be
       0.010576454 0.26812097 0.1571646 -0.18623056
000070 00 c6 26 be d5 f7 f6 bd 29 81 46 3e 9f 35 09 3e
       -0.16286469 -0.12058989 0.19385208 0.13399361
000080 18 b2 0c 3c ee e3 b5 be 3c 01 de bd 1c a8 13 3e
       0.008587383 -0.3552546 -0.10840079 0.14419597
000090 ec 78 08 be d0 46 1e 3d f4 61 06 be 44 02 90 3d
       -0.13327378 0.03864175 -0.13123304 0.07031682
0000a0 33 71 98 bd 50 20 4f 3e 2f 5d 09 be 1c bd 33 3d
       -0.07443466 0.2022717 -0.13414453 0.04388152
0000b0 cc 26 c1 bd c6 f7 e0 be 00 52 9f bc 3e 11 02 be
       -0.09431228 -0.43939036 -0.01944828 -0.1270189
0000c0 60 59 08 3d 45 ea c6 bc e2 33 3c 3e 7d 04 22 3e
       0.03328836 -0.02428163 0.18379167 0.15822025
0000d0 cd e2 7e be 85 06 6a 3c 30 6f 76 bd de ad 64 3d
       -0.24891205 0.014283781 -0.06016463 0.055829875
0000e0 b7 fa 13 bd a7 8e 8f be da 80 8a bc bb 5d 17 be
       -0.036127772 -0.28038523 -0.016907144 -0.14781849
0000f0 34 13 ab bd 8e bc 21 bd d2 28 20 be b9 79 a0 3c
       -0.08353272 -0.03948646 -0.15640572 0.019589292
000100 d5 81 4f 3e f1 99 8c 3d b2 3b e2 bc c9 85 4b bd
       0.2026437 0.068652995 -0.027616356 -0.049688134
000110 5d f0 81 bd cb bf bd 3d c0 c9 09 bd fa 79 21 3e
       -0.06344674 0.09265097 -0.03363967 0.15769187
000120 a9 1a 50 3d 90 2a 20 be fc 21 89 bd 04 ff 2e bd
       0.050806675 -0.15641236 -0.06695935 -0.04272367
000130 a6 57 06 3e 01 6c 7d 3d 9b 25 75 bd 70 7c c8 bd
       0.13119373 0.06187058 -0.059850316 -0.097893596
000140 ad 92 8f 3c 99 12 0f bd f0 42 19 3e dc fd 21 bd
       0.017525995 -0.034929845 0.14966941 -0.03954874
000150 a9 5a 30 be 71 e3 17 bc fd aa 01 be d0 b0 9f 3d
       -0.17222084 -0.009270535 -0.12662883 0.07797396
000160 d7 ff 01 3e de e2 2c be 43 5c 26 be b6 7e 46 bd
       0.12695251 -0.16883418 -0.16246133 -0.048460685
000170 f8 d6 86 3d 34 53 fe bc 30 38 61 3d a3 44 cd 3c
       0.06583971 -0.031045534 0.054985225 0.025057143
000180 fd d8 86 3d b8 1f d9 3e 9a 6e eb 3d be 54 05 be
       0.06584356 0.42407012 0.11495705 -0.13020608
000190 ba c5 b3 bd a1 63 92 bc 36 d7 b1 bd 53 33 9b 3d
       -0.08777948 -0.017869772 -0.08683626 0.07578149
0001a0 80 18 37 bd 0d 89 6a bd 57 90 b1 3b 6b 42 09 be
       -0.0447011 -0.057259608 0.005418818 -0.13404243
0001b0 d9 36 36 be 60 59 d3 bd 0c f2 24 be ca 98 6f bd
       -0.1779436 -0.10319781 -0.16107959 -0.05849532
0001c0 64 ca 54 3e ba bf 5c 3e b9 9c 46 3e e5 66 69 3e
       0.20780331 0.21557513 0.19395722 0.22793157
0001d0 bc 03 9c 3e be eb 4e 3e 7d 01 fb 3d 13 e7 9f bd
       0.304716 0.20207116 0.12256143 -0.07807746
0001e0 0c 0b 8a 3d 23 8c 01 3e dd ae 14 3e 5e ed 93 3c
       0.06740388 0.12651114 0.1451983 0.018057521
0001f0 1c 75 6d be cd ab a9 bd db f5 06 3e d2 bb 74 bd
       -0.23189205 -0.082847215 0.13179724 -0.059749432

bias_hh_l0 f4 [128]
000000 3f 02 f2 3d 2a f4 96 3e a7 58 17 3e f5 a3 af 3b
       0.11816835 0.29483157 0.14779912 0.0053601214
000010 56 22 7b bc 39 92 57 be 2d e5 80 be a8 f5 82 3d
       -0.015328011 -0.21051873 -0.25174847 0.063945115
000020 e0 01 ac bd 41 00 88 3d 94 3d 88 bd 8d c4 cc bd
       -0.08398795 0.066406734 -0.0665237 -0.099984266
000030 38 de 63 be d0 4e 20 3e 6d a1 89 bc 9f 2d 0c 3e
       -0.22252738 0.15655065 -0.016800607 0.13689278
000040 ee 2b a0 3d 98 42 d8 3d c2 f1 ac bd da 82 1b 3d
       0.07820879 0.10559577 -0.08444549 0.037966587
000050 62 ca 29 3c 44 ff 13 3d 17 10 0f be 74 bc 04 3d
       0.010363193 0.036132112 -0.13970982 0.032406285
000060 59 39 ee 3d bf 6b df 3e 92 4d 05 3d 96 1b 90 be
       0.11632032 0.4363689 0.03254468 -0.28146046
000070 9f 50 90 3d af ef b5 bd c9 31 a3 b9 b4 b7 d3 3d
       0.07046627 -0.08883607 -0.00031126876 0.10337773
000080 88 b9 d4 bd 11 4e 4b be 9f 1e 9c bc b0 b3 4c 3d
       -0.1038695 -0.19853999 -0.01905757 0.04997605
000090 fd 9b 84 bd 9d d8 73 3d a7 63 e6 bd b8 a9 14 3e
       -0.06475065 0.05953275 -0.11249476 0.14517868
0000a0 fe 5b 4f 3c 6d 2e 18 bd b9 d4 54 bd 43 d2 e4 bd
       0.01265621 -0.03715365 -0.05196068 -0.11172917
0000b0 87 cc e3 bc 15 a5 9e be e2 58 45 bd 67 0a de 3d
       -0.027807487 -0.30985323 -0.04818047 0.10841828
0000c0 86 4b f1 3d d4 61 81 be cf 13 ce 3c aa 96 e0 bd
       0.11781983 -0.2526995 0.02515593 -0.10966237
0000d0 ba 1e 20 be 7b 73 75 3d 69 b2 11 3d d9 cf a1 3d
       -0.15636721 0.059924584 0.035570536 0.07900972
0000e0 73 99 2a 3c 24 04 9b be 22 da e7 bd 90 05 76 be
       0.010412562 -0.30276597 -0.113209024 -0.2402556
0000f0 40 f4 c5 bd 49 ac c1 bd a3 31 26 be 43 6c 09 be
       -0.096657276 -0.09456689 -0.16229872 -0.13420205
000100 15 e5 bb bc 08 54 65 bd 68 1d d7 3d c7 96 9d bc
       -0.022936383 -0.05598834 0.10503656 -0.019236935
000110 77 f1 c2 bc 25 ac 0b 3e 1e d1 e3 ba b5 df 87 bd
       -0.02379678 0.13639887 -0.0017381047 -0.066344656
000120 79 d0 3a bd 57 ea 5c 3d 46 1f ce 3b 3d 2a 9a 3d
       -0.04560897 0.05393442 0.006290349 0.075275876
000130 da f1 2f be 58 9c e1 bd 07 70 04 be 02 83 be 3d
       -0.17182103 -0.11016148 -0.1293336 0.093023315
000140 44 81 87 bd be 70 65 bd 0a c4 e0 bd 43 3e a7 bd
       -0.06616452 -0.056015722 -0.109748915 -0.08166172
000150 b0 7a 48 3c 9a 67 5c bd 2a 6c 3a 3c a2 c4 87 3d
       0.012236282 -0.05380974 0.011378327 0.066293016
000160 bb 2b 5a 3c 55 65 02 3e 8a 33 01 3e 55 fc f1 3d
       0.01331609 0.12733968 0.12617317 0.11815707
000170 f2 20 a4 bd c7 c1 2c 3d cc 32 f0 bd 6d 22 a7 bd
       -0.08014096 0.042176988 -0.11728439 -0.08160863
000180 51 a3 90 3d f9 b8 a4 3e 45 21 19 3e f7 78 04 3e
       0.070624 0.32172373 0.14954098 0.1293677
000190 c9 49 45 be a6 4f 72 3d 09 28 85 be bc 6a 31 3e
       -0.19266428 0.05915799 -0.26007107 0.17325872
0001a0 62 ca 06 3c 20 0b 13 3e e6 bf 86 bd 05 c8 36 3e
       0.008226963 0.14359713 -0.065795705 0.17849739
0001b0 51 c6 de bb bd 1b 1c 3d ca 86 31 3d 18 f3 ce bd
       -0.0067985435 0.03811239 0.043341435 -0.1010496
0001c0 fa 3a a5 3e d4 b5 75 3c df ff 48 3e 9e 20 1e 3e
       0.32271558 0.0149969645 0.19628857 0.1544213
0001d0 b3 6d 17 3e f7 2a 48 bd 92 3f db bd 11 25 1a bd
       0.1478794 -0.0488691 -0.107054844 -0.037633006
0001e0 ca dc a2 3d 9f 46 17 3e 48 d6 0c 3e 99 cd 41 be
       0.079522684 0.14773034 0.13753617 -0.18926086
0001f0 0e 57 93 3b df 65 17 3d 3d 00 66 3d 77 de 19 3c
       0.0044964617 0.036962386 0.05615257 0.009391419

weight_ih_l1 f4 [128, 32]
000000 49 43 e2 3c 99 62 ba bd d0 eb 8d 3e 43 bf 06 be
       0.027619975 -0.09100837 0.27718973 -0.13158898
000010 5b 18 2d 3e 24 c0 11 be 48 e8 21 3e d4 f0 51 3e
       0.16903822 -0.14233452 0.15811265 0.20502025
000020 e7 00 1a 3e 52 0e d6 3c 3d 8c 1e 3d ad 5e 6e bb
       0.15039407 0.026129875 0.03870796 -0.003637235
000030 17 a9 fe 3d 0b 94 6d 3e 8b 4a bd bd 3c 7e 6f 3e
       0.12434595 0.23201005 -0.092427336 0.23387998
000040 bb 82 9f be 27 e2 44 bc 9d 4d d7 3c 62 9e 31 3d
       -0.31154427 -0.01201681 0.026282126 0.043363936
000050 21 58 7d 3d 84 4f 7f 3e 9a df b3 3d f5 31 cd 3d
       0.061851624 0.24932677 0.08782883 0.10019294
000060 99 f6 98 3d 2b 93 60 3e 4e d5 e6 bd 18 3a ac 3d
       0.0746891 0.2193114 -0.112711534 0.08409518
000070 11 a0 16 be 88 25 15 3e 40 fa b6 bd 9d 38 b8 3d
       -0.14709498 0.14565098 -0.0893445 0.08995173
000080 5f eb e7 3e 1a 6f f0 be 0a 1f 82 3e e9 0a 74 3e
       0.4529676 -0.46959764 0.25414306 0.23832287
000090 8c 30 28 3e b3 e7 41 3e 69 ea 1e be 76 76 26 be
       0.16424769 0.18936042 -0.15519108 -0.16256127
0000a0 e6 65 24 bc ff 6f 12 be 71 7b b9 be e9 66 27 be
       -0.01003406 -0.14300536 -0.3622699 -0.16347851
0000b0 ea 2f cc bd 8c 2f 1d 3e 03 33 36 be 54 b5 6d bd
       -0.099700764 0.15350169 -0.17792897 -0.058034256
0000c0 27 b8 7c 3e 14 4f dd 3c a7 8e 65 be ff 1d 53 be
       0.24679624 0.027015246 -0.22417699 -0.20616911
0000d0 7c 30 d8 be 6e 23 52 be 33 90 af 3c 8e 76 a4 3d
       -0.4222449 -0.20521328 0.021431064 0.08030425
0000e0 7a ee 5a be 7b 58 ff 3b 32 65 51 3e f8 a2 6e 3e
       -0.21380034 0.00779253 0.20448759 0.23304355
0000f0 45 4c 65 3e 5a 87 10 be 7a 27 90 3d 8b 34 dd bd
       0.22392376 -0.14114133 0.070387796 -0.108010374
000100 25 4a 93 3e 72 5c fd be 90 dd 05 3f e0 c7 77 3d
       0.28767505 -0.49484593 0.522912 0.06049335
000110 1b a0 8f bd 03 1c dd 3d 92 46 67 be 73 69 1d be
       -0.070129596 0.107963584 -0.22585514 -0.15372257
000120 1d fb 05 3e 61 69 08 be be a2 d6 be 06 76 b9 3d
       0.13084073 -0.13321449 -0.41921037 0.09055714
000130 2b 98 f0 3e 33 dc 89 3e f4 58 66 bd 62 8e b6 be
       0.46991095 0.2692581 -0.056237176 -0.35655504
000140 85 cb 6c be dd 23 a0 3d dd 12 11 3d bd b3 d8 be
       -0.23124512 0.078193404 0.03541838 -0.4232463
000150 47 68 74 bf b0 5d 07 be be a2 74 3c 78 bb 94 bc
       -0.95471615 -0.13219333 0.014931379 -0.018155798
000160 ba f0 d4 3b 06 c2 2b 40 5c b6 5f 3c c8 85 7a be
       0.0064984234 2.6837173 0.013654318 -0.24465096
000170 05 29 26 3e 8b 9f 6a 3e 3c fd df bc 64 b3 f9 bd
       0.16226585 0.22912423 -0.027342431 -0.12192419
000180 d1 c5 69 be fe e9 7a be f5 4c 84 3d 98 a2 17 be
       -0.22829367 -0.24503323 0.06459991 -0.14808118
000190 5d 85 e3 3c c8 f4 3c 3d cc 75 28 be f6 bb 8a 3e
       0.027773554 0.04613188 -0.16451186 0.27096528
0001a0 0a 70 fa bd 93 21 c3 3d ca 0d 68 3e e6 84 1f 3d
       -0.12228401 0.09527888 0.2266151 0.0389451
0001b0 a1 6a 09 3e e8 39 cf bc de ae 28 be 18 cb 96 bd
       0.13419582 -0.025296167 -0.16472957 -0.07362956
0001c0 2a ae b2 be f7 d6 a0 3d a1 38 ad 3e a9 3c a2 3e
       -0.34898502 0.07853501 0.33832267 0.31686905
0001d0 b3 41 86 be e1 3f 8d 3e ee 8b 72 bd 26 2a 66 be
       -0.26222 0.27587798 -0.05921548 -0.22477016
0001e0 3d f2 8a 3e 2b fe a2 3e 03 ed 53 be 89 32 94 be
       0.27137938 0.3183454 -0.20695882 -0.28944805
0001f0 e4 de 1e bb 22 5e b4 3e 8c 23 50 be df b9 50 3e
       -0.002424174 0.35228068 -0.2032606 0.20383404
000200 6a 9b ad 3e c0 e7 5a 3d 32 7f e1 3c 04 80 34 be
       0.33907634 0.05344367 0.027526472 -0.17626959
000210 a1 30 86 3d 6a 31 a7 3d 6a fb eb bd 53 30 90 3d
       0.06552244 0.08163722 -0.11522563 0.07040467
000220 eb af 71 be 8b 02 e8 3c 28 7c 22 bd 69 6a 4c be
       -0.23602264 0.028321525 -0.039669186 -0.19962467
000230 ba ee 2e be d1 66 d4 3d 8c 41 04 3e b2 3e d0 3c
       -0.17083254 0.10371173 0.12915629 0.02542052
000240 6e 57 6b 3e 1a 77 8d 3d 58 d3 d0 3d 1a a3 c5 3d
       0.2298257 0.069074824 0.101965606 0.0965025
000250 0f f2 fe bb f4 bf 7f 3e 52 91 9d 3b 78 36 b6 3e
       -0.0077803205 0.24975568 0.0048085833 0.3558843
000260 55 d3 27 3d 73 1a ea be f4 be b7 bd 55 da c1 bd
       0.040973026 -0.45723304 -0.08971968 -0.09465472
000270 bd 49 09 3e 3b 11 80 3e 8e a3 df 3c c6 bd 31 3e
       0.13407035 0.25013146 0.027299669 0.17357549
000280 ba 17 0c 3d 8c ba af be d3 e3 2a be be fb 13 be
       0.034202315 -0.3432201 -0.1668847 -0.14451501
000290 8b b3 b4 3d e2 47 62 3d 79 05 bd 3c 8a 3f de 3d
       0.088233076 0.055244334 0.023073899 0.10851963
0002a0 5a b8 a0 3d 02 0b 89 3e 33 73 d0 3e 44 a1 82 3e
       0.07847662 0.2676621 0.4071289 0.2551366
0002b0 fc 6e d4 3d f7 9c 3f 3e 6a 85 45 3d 7f 00 58 3d
       0.10372731 0.18712221 0.048222937 0.052734848
0002c0 30 d4 cb be 5b 7f 5b be e2 21 d5 3e 75 72 94 3e
       -0.39810324 -0.21435301 0.41627413 0.28993574
0002d0 52 61 1a 3e 5f d7 96 3e d1 38 49 3e 2b f2 e0 3c
       0.15076187 0.2946119 0.1965058 0.027459225
0002e0 d6 f1 6c 3e 0f cd b7 3e a0 94 6f bd 8c 54 2c 3d
       0.23139128 0.35898635 -0.05849135 0.042072818
0002f0 03 82 c3 3d de af de 3e 7e bf 9d be 0d 35 ee 3d
       0.09546282 0.4349355 -0.3081016 0.116312124
000300 28 c8 72 3f 78 06 f9 3e f5 01 b7 3e 38 7d 95 be
       0.94836664 0.48637748 0.3574368 -0.29197097
000310 be 05 aa 3d 4a 2a 2d 3e af 71 00 bf 0a 93 ac 3e
       0.083018765 0.16910663 -0.5017347 0.33705932
000320 0b 0c e0 be 34 16 0d bd b4 98 a3 be 81 c9 75 be
       -0.43759188 -0.034445003 -0.3195244 -0.24002649
000330 81 1c 68 be c0 15 82 3e 2b a3 31 3d c4 be d8 bd
       -0.22667123 0.2540722 0.0433685 -0.10583261
000340 94 5d bf 3e 96 e0 d0 bd 37 fb c7 3e 83 a6 1b bf
       0.37376082 -0.10199086 0.3905885 -0.6080095
000350 95 5e dc be 91 c9 26 be 7c 85 5b 3e 51 f1 67 3f
       -0.4304091 -0.16287829 0.21437639 0.90602595
000360 5e 71 ca bd 35 50 06 bc c9 13 af bd 5a 8b a8 3d
       -0.09884904 -0.008197834 -0.085486956 0.08229704
000370 a2 7e 15 3b 5f 7c 22 3d 89 a4 35 bc 76 6c a2 be
       0.0022811075 0.03966939 -0.0110865915 -0.31723374
000380 dc 48 1b 3f dd cd 11 be 9a 98 8c 3e 39 fc 04 3e
       0.6065805 -0.14238687 0.27460176 0.1298684
000390 ae 2a 04 3e e8 70 15 3e c5 8f 14 be 48 8b 7f 3c
       0.12906906 0.14593852 -0.14507969 0.015597172
0003a0 79 1c 62 be dc 39 b3 bc a1 09 20 3c f6 55 3d be
       -0.22081174 -0.021878175 0.009767921 -0.18489823
0003b0 a4 dc 23 bd 7c 82 42 3e 43 dd 10 bd 85 5f b5 3c
       -0.04000534 0.18995088 -0.03536726 0.022140274
0003c0 a0 92 0f 3e 5a 5a 5f bd 77 47 9a 3d fc 3d de be
       0.14020777 -0.054529525 0.07533162 -0.43406665
0003d0 5b 86 6f be b6 c9 49 3e 2b 2c 9f bd 85 a4 03 3f
       -0.23391096 0.19705853 -0.07772096 0.5142291
0003e0 a7 4a 61 bc 9e 0e 48 bb e0 3e f2 3d 61 ab 38 be
       -0.013750709 -0.003052629 0.11828399 -0.18034126
0003f0 26 cb af bd 5e a1 6d 3e 28 7e 1b 3e b5 01 81 bd
       -0.08583669 0.23206088 0.15184844 -0.06299154

weight_hh_l1 f4 [128, 32]
000000 f3 03 a1 3d 74 47 06 bf 01 d4 53 be 31 9e 8d be
       0.078620814 -0.5245278 -0.20686342 -0.27659753
000010 af dc 4e 3e 54 2f 8f 3d f8 a4 2b be 14 ba c7 be
       0.20201372 0.06991449 -0.1676215 -0.39009154
000020 63 ba 2d 3d 92 ac b9 be 9c cc 02 bf 03 e9 07 3d
       0.04241408 -0.36264473 -0.5109346 0.0331812
000030 2f b2 11 3e 3f af c3 be 73 55 90 3e dc fd 24 3e
       0.14228128 -0.3821964 0.28190193 0.16112465
000040 0e 3c 2f 3e f6 50 57 be 4c 9b 28 bd 10 63 41 bd
       0.17112753 -0.21026978 -0.041163728 -0.047213614
000050 25 d0 62 3e cc 05 d9 be fb ed b0 be 5f 8e 79 be
       0.22149713 -0.42387235 -0.34556565 -0.24370717
000060 96 d0 2b be b1 e1 ed 3d 8b cb c3 3e f4 ad 5d 3d
       -0.16778788 0.11615313 0.38241228 0.054120973
000070 96 cd 84 be 8f e2 eb bd 25 7c 15 be d7 30 0d be
       -0.259381 -0.11517822 -0.14598139 -0.13788162
000080 d7 89 15 3e 39 e3 82 be 81 bf 3a 3e 6b fd ac be
       0.14603363 -0.25563982 0.18237115 -0.33787093
000090 da db 30 3e c2 39 05 be f2 27 8b 3e d2 2b 07 3e
       0.17271367 -0.13010314 0.27178913 0.1320031
0000a0 50 46 cc 3c 4d 88 13 be 9f 1b 28 be 1a e5 8c bd
       0.024935871 -0.14407463 -0.16416787 -0.06879635
0000b0 da 94 0d be 49 e3 09 be df b0 20 3f d9 12 9c 3e
       -0.13826314 -0.13465609 0.62769884 0.3048313
0000c0 18 53 df 3e ae 14 0f be d3 bc 8d 3d 19 0f d6 bd
       0.43618083 -0.13972732 0.06920781 -0.104520984
0000d0 d6 e5 0c 3e eb 07 ef be 5d bc c0 3d eb df d5 3e
       0.1375955 -0.46685728 0.094109274 0.41772398
0000e0 2c 3c d9 3d 4a a5 1e 3f e6 1d 22 be 0f c5 d1 3e
       0.1060718 0.6197096 -0.15831718 0.40970656
0000f0 c0 5b 85 be fb bb 2a 3e c0 63 ba 3e 50 13 ec 3c
       -0.26046562 0.16673271 0.36404228 0.028817803
000100 fe 44 73 3e 92 9d 6a bf 6b e3 2c 3a ae a4 45 bf
       0.23756787 -0.91646683 0.0006595167 -0.77204406
000110 e6 5e 55 be c2 f3 3e 3e 9d c6 78 3f 39 20 e5 be
       -0.20836982 0.18647674 0.9717806 -0.44751146
000120 ec 7c b1 3e da 50 1f be ed 04 16 3e 87 fb 0d bf
       0.3466562 -0.15558186 0.14650317 -0.55461925
000130 58 ed a5 3e f8 05 19 3e 4b 73 bb 3f 00 8b 61 be
       0.3240764 0.14943683 1.464456 -0.2202568
000140 10 bc 72 bf 3a a5 30 3e e6 d7 90 be c0 43 1c 3e
       -0.9481821 0.17250529 -0.28289717 0.1526022
000150 4e 4c 17 3f 4c f0 83 bf 57 18 fa be 29 a9 8e bf
       0.59100807 -1.0307708 -0.48846695 -1.1145374
000160 e8 4b 05 3e f7 fa 54 3e c2 7c a2 3e 6c 2f 92 3e
       0.13017237 0.2079886 0.31735808 0.28551805
000170 32 7b 95 3e 98 16 42 3e 2e 49 18 bf b9 89 9d 3d
       0.29195553 0.18953931 -0.59486663 0.07692284
000180 01 2d 18 3e a4 fb 15 3e 72 4a d8 3e 73 8a 32 39
       0.14860918 0.14646775 0.42244297 0.00017026979
000190 8f c3 b1 3e fb 96 45 be 88 2a 2d 3f 78 de e5 be
       0.34719512 -0.19295876 0.6764302 -0.44896293
0001a0 51 c1 8c bd 8d ab 3a be d5 f5 5b bc 24 ed 99 3d
       -0.0687281 -0.18229504 -0.01342531 0.07515934
0001b0 25 0d 50 be 48 52 8b be fb 46 bb 3e 54 b8 bd 3e
       -0.20317514 -0.27211213 0.3657759 0.37054694
0001c0 2e 1a 66 3d 31 af 12 be 60 b9 a3 be d4 a6 8d bd
       0.05617731 -0.14324643 -0.31977367 -0.069165856
0001d0 b1 e1 bd bd eb 39 8a 3e ef b6 5f 3e 70 9f c0 be
       -0.09271563 0.26997313 0.21847127 -0.3762164
0001e0 91 2f 2e 3c dd 14 ea bd 95 53 e6 bd a6 ba 38 3e
       0.010631458 -0.114297606 -0.11246411 0.1803995
0001f0 4e 6d a5 be ac aa 22 3e 6b 05 43 bd 6d 88 aa bd
       -0.32309955 0.15885419 -0.04761259 -0.083268024
000200 9b 26 75 3e 5a 8e 86 be 89 ec cb 3e 0c ee 24 3e
       0.23940508 -0.2628048 0.398289 0.16106433
000210 cb 1d 3b 3f 87 01 02 3d 77 de a5 3e 19 8c a3 bd
       0.73092335 0.031739738 0.3239629 -0.07985706
000220 9f 10 bb bd 78 3c 9e be ce 33 5b 3e ad 95 b1 3d
       -0.091340296 -0.3090551 0.2140648 0.086711265
000230 55 1b 45 3c c1 75 6b 3c 03 0e c5 be 4e ca 8f 3e
       0.012030442 0.014371336 -0.38487253 0.28084034
000240 b0 41 67 3e f1 8e 05 be a3 22 68 bd 0f e0 5b be
       0.22583652 -0.13042809 -0.056673657 -0.2147219
000250 3e 9c e4 bd 60 a5 e2 3e 2c d6 59 be 82 8e e3 3e
       -0.11162613 0.44266796 -0.21273106 0.44444662
000260 67 17 ae bd ed e3 1a 3f 5f 71 dd 3d 7b 67 81 3e
       -0.085005574 0.6050404 0.108126394 0.25274262
000270 27 6e 2d 3e ab f1 8e bd a3 f4 65 bd 83 d1 a1 3d
       0.16936551 -0.06979688 -0.056141507 0.07901289
000280 dd e2 89 bd 47 47 4d 3c 0d 86 01 be 8e 25 74 be
       -0.06732724 0.012529201 -0.12648793 -0.23842451
000290 7e c2 3d be 8e 61 3e be 11 71 9a 3e c9 6b 07 3e
       -0.18531224 -0.18591902 0.30164388 0.1322471
0002a0 a0 68 97 be 47 02 4f be ab e2 5f 3e 0d ee 26 be
       -0.2957201 -0.20215712 0.2186381 -0.16301747
0002b0 05 fd 61 3d 4c ce 41 bd c6 97 99 3d 83 31 4c be
       0.05517294 -0.04731588 0.074996516 -0.19940762
0002c0 2d 6b 5b be 01 09 9d 3d 8d 6b b5 bc 89 ec bd be
       -0.21427603 0.07667733 -0.02214601 -0.37094525
0002d0 00 71 85 bd d9 90 52 3f 23 b7 31 be 95 67 27 bf
       -0.06515694 0.8225227 -0.17355017 -0.6539243
0002e0 17 58 85 3e 26 3e 4d 3d 30 83 a9 bd 65 4f 65 3e
       0.2604377 0.050108097 -0.08276975 0.22393568
0002f0 c0 2e 8f be 41 b3 06 be fe 66 73 be e8 31 93 3e
       -0.27965355 -0.13154317 -0.23769757 0.28749013
000300 83 4c 68 3d 84 22 f4 be 9e b5 d0 3c 4b 56 08 3e
       0.056713592 -0.47682583 0.025477227 0.13314168
000310 be 07 a0 bc 8f 7d 65 3f 3a 08 47 bf 7f 1d 17 be
       -0.019534942 0.8964471 -0.7774693 -0.14757346
000320 ae 96 22 bf 6e 4d 44 bf e0 84 84 3e 70 25 90 be
       -0.6351117 -0.7668065 0.25882626 -0.28153563
000330 c8 55 06 bf 6e 3e 3a bd 31 58 22 3f 25 1c a6 3e
       -0.5247464 -0.045469694 0.6341582 0.32443348
000340 f2 84 bc 3e f6 54 f3 3d 1d 4d f9 3e 33 22 db 3d
       0.3682018 0.118814394 0.48691645 0.10699882
000350 7b a0 c2 be 93 a0 3e be 30 2f 9b 3d 2b b3 00 be
       -0.38013062 -0.18615942 0.0757736 -0.12568347
000360 64 28 d4 3d 91 41 83 3f b7 a3 9b bf 05 fe 77 3f
       0.103592664 1.0254384 -1.2159337 0.9687198
000370 cf 76 c7 be 38 a3 3c be c0 33 3f bf 4f d1 7e 3e
       -0.3895783 -0.18421638 -0.7468834 0.24884532
000380 8b e4 92 3d 2e ec 1b bf 83 47 23 bd db ad 05 3e
       0.07172497 -0.60907257 -0.03986312 0.13054602
000390 e5 37 a5 3e 90 70 0a 3c 0f 23 96 3e c7 9e e3 bd
       0.32269207 0.008449689 0.29323623 -0.11114269
0003a0 f2 b1 db bd 47 4e 35 bf 8a 5b f1 bd 87 7b 76 3e
       -0.107273 -0.70822567 -0.11785038 0.2407056
0003b0 d6 f0 ee 3c 73 cf b3 be c7 c9 31 bf aa c2 dc 3e
       0.029167574 -0.3511921 -0.6944851 0.43117267
0003c0 40 9d 40 3f 62 d3 6a be 3e cb 87 3e b2 fd d6 3c
       0.75239944 -0.22932199 0.2652225 0.026244018
0003d0 11 68 68 3d 64 07 56 3e 10 ec 81 be 2c e0 a7 3e
       0.05673987 0.20901257 -0.25375414 0.32788217
0003e0 f9 fc ca 3d e7 3b a9 3f 49 52 e5 3b ce 8b 9e 3e
       0.09911532 1.3221406 0.0069983345 0.30966038
0003f0 9b 0c 15 be 49 63 04 bc 23 e6 58 3e e3 40 ca 3d
       -0.1455559 -0.008080312 0.2118154 0.098756574

bias_ih_l1 f4 [128]
000000 c9 35 0a 3e 8e 19 f0 3d 1b 8f 82 3e 4f 76 55 3e
       0.1349708 0.11723624 0.25499806 0.20845912
000010 c0 07 24 bc d1 aa 55 3e 94 28 4e 3e 2a 70 86 bc
       -0.010011613 0.20865943 0.20132667 -0.016410906
000020 df 29 95 3d b5 68 c9 3d bc d0 16 3b 0f ef f3 3d
       0.07283377 0.098344244 0.00230126 0.11910831
000030 96 b5 a3 bc 25 c4 d3 3d fc 18 a2 3e dd 40 24 3e
       -0.019984048 0.10340146 0.31659687 0.16040368
000040 fa 75 9e 3e 21 e0 d7 bb ea 5f b1 3d 87 f6 22 3e
       0.30949384 -0.0065879975 0.08660872 0.15914355
000050 f1 25 21 be df 83 06 3e 02 cd 3d 3e 20 11 85 bb
       -0.1573713 0.13136242 0.18535236 -0.0040608793
000060 c2 83 ed 3d 36 b8 1e 3e c4 d4 cf 3d bc b9 55 3e
       0.115973964 0.15499958 0.10148004 0.20871633
000070 26 0b dd 3d 9b 1a 1f 3d 17 3c 4f 3e ee 87 10 3e
       0.10793142 0.038843732 0.20237766 0.14114353
000080 88 6c 43 be cd c2 8a 3d 0d 34 89 bc 41 6e 1c 3e
       -0.1908437 0.067754366 -0.016748453 0.15276434
000090 4b 7e 52 3d 35 d6 f0 3d 86 2b cd 3c 6f 34 66 be
       0.051389974 0.11759607 0.025045168 -0.2248094
0000a0 62 8c 9e bd 11 f0 46 bd 8e 70 e2 bd 77 17 f5 bd
       -0.0774162 -0.04856879 -0.11056624 -0.11967366
0000b0 89 47 63 3d 5f 67 9c bd d4 95 c5 be 4b 24 02 3e
       0.055488143 -0.07636904 -0.38590872 0.12709157
0000c0 0d 49 a9 3d b8 f4 7e 3c e1 24 0e be cd ed 2d bd
       0.082658865 0.015561275 -0.13881256 -0.042463113
0000d0 de 01 a8 be 59 9c 07 be 16 15 37 3e 61 ee 33 be
       -0.32813925 -0.13243236 0.17879137 -0.17571403
0000e0 a8 da 38 3e 8c 69 81 3e 79 ff 13 3e 3a 5d 1c bf
       0.1805216 0.25275838 0.14452924 -0.6107975
0000f0 fd eb 09 be eb ba da 3d 38 d5 c6 3d 74 aa 2b 3e
       -0.13468929 0.10680183 0.09708637 0.16764241
000100 66 d2 b7 3d 8c 15 35 bd 34 59 71 3e 01 4d 16 be
       0.08975677 -0.04421 0.23569185 -0.14677812
000110 33 b4 a6 bd 74 84 8b bd b3 b7 a5 3c 5b 06 af bd
       -0.08139839 -0.06812373 0.020229196 -0.08546134
000120 0d 7f 00 3e bd 9c 71 bc 1d 73 32 bd c0 6c 87 3c
       0.12548466 -0.014746842 -0.04356681 0.016531348
000130 be 33 93 3d 76 f8 ea bd 50 a4 1d 3e 3d f2 7e bd
       0.071876034 -0.114731714 0.15394711 -0.062242735
000140 41 d2 05 3d b0 75 23 be 22 e3 0d be 17 2d 89 bd
       0.032671217 -0.15962863 -0.13856176 -0.06698053
000150 fa fc da 3c de 3a 5a be fa c7 14 3e 69 21 5c bc
       0.026731957 -0.21311519 0.1452941 -0.0134357
000160 0d dc 32 3e d6 22 08 3e de 39 46 3e c6 ea c3 3e
       0.17466755 0.13294539 0.19358012 0.38265055
000170 5b 3b f5 3c d1 0b 51 bd db ba 25 be f4 fc 4b 3e
       0.02993553 -0.05103666 -0.16184561 0.19920713
000180 72 69 26 3d 9a 01 ec 3d ca 39 da 3d 38 24 d4 bc
       0.040627904 0.11523743 0.10655554 -0.025896177
000190 25 fc 25 be 74 35 3a 3e 55 bb 82 bd cd 59 0f 3e
       -0.16209467 0.18184453 -0.06383387 0.139991
0001a0 22 56 9c bc d7 70 b0 3d 04 5c 32 3e 15 48 5a 3e
       -0.01908404 0.086152725 0.17417914 0.2131656
0001b0 fb 1a 8b 3d 64 fa 09 be d1 00 21 3f 49 f2 4e bd
       0.067922555 -0.13474423 0.6289187 -0.05052403
0001c0 cb 37 b6 3e 9a 5f 13 3d 7e 9f 5a 3d e2 ce 52 3d
       0.35589442 0.035979845 0.05337476 0.05146683
0001d0 7f 2f ca bd 70 7f c8 bb 0e f7 ba 3d a1 4e 01 3e
       -0.098723404 -0.0061187074 0.09129153 0.12627651
0001e0 f5 70 8c bd ff 60 08 bd da fb eb bb 29 be 0d 3f
       -0.06857482 -0.033295628 -0.007201654 0.55368286
0001f0 18 a4 12 be dc 44 cf 3d 69 d2 47 3d 29 a8 9f bc
       -0.1432041 0.10120556 0.048784647 -0.019489365

bias_hh_l1 f4 [128]
000000 48 cb f9 bd a7 c7 7d 3e 70 af 41 3e 5d f4 14 3e
       -0.12196976 0.24783193 0.1891458 0.14546342
000010 e4 bc 5d be f2 3e 66 3e b0 59 ec 3d f3 eb 1e 3e
       -0.21654087 0.22484949 0.11540544 0.15519695
000020 71 d6 1a 3e 5b 28 4b 3d fd 30 40 3d 8e 04 2f bd
       0.15120865 0.049599033 0.04692172 -0.042728953
000030 9c be aa bd c9 fb 2e 3c db 78 01 3f 9a c9 e2 3d
       -0.08337137 0.010680147 0.50575036 0.11073609
000040 12 6d a7 3e cf ac a7 3c fa 26 ec 3b e6 ef f3 3d
       0.32700402 0.020468144 0.007206795 0.11910991
000050 72 20 ac 3d 96 2d e6 3d 75 a8 df bc d7 c7 91 3c
       0.08404626 0.112391636 -0.027302006 0.017795486
000060 97 97 c7 3c 49 52 1b 3d db 35 26 3e c0 7e d6 3e
       0.024364276 0.03792027 0.16231482 0.41893578
000070 f8 44 8d 3c 73 b7 ad bc a3 00 4b 3e 6c 1e a9 bd
       0.0172448 -0.02120564 0.19824462 -0.08257756
000080 ef 2a 12 be 33 64 0d bd ee 88 bc bc 29 c6 a2 bd
       -0.1427419 -0.034519386 -0.023014512 -0.07947952
000090 62 76 49 3e b9 7a 90 bd 61 94 8e bd 99 54 b5 bc
       0.19674066 -0.070546575 -0.06961895 -0.022135066
0000a0 85 cf c7 3d 5c f9 fd 3d dc 68 ba bd df 7c 19 3e
       0.09756378 0.12401077 -0.091020316 0.14989041
0000b0 92 39 03 be 55 51 cd bd b3 bb cd bd 50 cf 6f 3d
       -0.1281493 -0.100252785 -0.100455664 0.058547318
0000c0 dd 87 78 be d6 c7 33 be 38 70 25 3e 96 5e 29 be
       -0.24270578 -0.175567 0.1615609 -0.16539988
0000d0 f9 29 22 be bd 2e b0 3d 16 e4 24 3e 38 bc 80 bd
       -0.15836324 0.086026646 0.16102633 -0.062859
0000e0 84 83 98 3d 7c e2 41 3e dd 72 06 bc b1 eb 28 bf
       0.074469596 0.18934053 -0.0082060965 -0.65984637
0000f0 96 d9 f1 bd 6a 7e cd bb 7a 6f 16 3c 6c 34 75 bc
       -0.11809079 -0.0062711732 0.0091818515 -0.014966112
000100 7b c3 a6 3d a1 6e 2e be c2 ba 10 3e 81 78 c8 bc
       0.08142754 -0.17034389 0.14133742 -0.024471523
000110 30 9d 41 be 71 c0 03 3c bf 67 2b 3d 4c 47 ae bd
       -0.18907619 0.008041487 0.041846987 -0.085096925
000120 22 ed 1b be 5e dd 5e be 42 06 79 bd 12 b9 0d be
       -0.15227178 -0.21764132 -0.060796984 -0.1384013
000130 8f 17 ad bd 26 0d 9d bd 59 ac e9 bd 87 54 13 3e
       -0.08451759 -0.076685235 -0.11409826 0.14387713
000140 5f 5b 1d be c5 ed 29 3d f9 7b 7e 3d 55 4e d3 3c
       -0.15366887 0.04148652 0.06212995 0.025794188
000150 9f a9 14 be 6c e5 89 be 69 ff 4a 3d 81 b5 46 3e
       -0.1451783 -0.26932847 0.049559984 0.19405176
000160 a9 e5 19 3e a1 74 3d 3b b4 71 2b 3e 51 5d 32 3e
       0.15029015 0.0028908628 0.16742593 0.1741841
000170 23 2d 20 be 02 56 27 be ed 30 f0 bc 52 6b e2 ba
       -0.15642218 -0.16341403 -0.029320205 -0.0017274416
000180 b3 64 62 bd ab e7 71 bd 94 fe d1 3d d8 6c b2 bc
       -0.055271816 -0.059058826 0.10253635 -0.021780416
000190 db db 5f bd 82 dd dd 3d 3f 79 13 3d 8f b1 65 bd
       -0.05465303 0.10833265 0.0360043 -0.056077536
0001a0 5f aa 0c 3e 03 67 45 3e 4c 38 59 3e 3d 9b 10 3e
       0.13736866 0.19277577 0.21212882 0.14121719
0001b0 05 23 f6 3c aa 10 cc bd 94 43 2a 3f 9a bc 12 be
       0.030045995 -0.09964116 0.66509366 -0.14329758
0001c0 fe b0 8b 3e 45 23 af 3d 5b ea 64 bd 55 d9 0f 3d
       0.27283472 0.08551649 -0.05588756 0.035119373
0001d0 e9 db 10 be 0a b9 8a bb 05 d9 a8 bd 19 c0 07 3d
       -0.14146389 -0.004233484 -0.08244518 0.033142183
0001e0 e3 48 88 3d 0c a8 c4 3d e1 e7 f9 3d fb f8 cf 3e
       0.06654527 0.09602365 0.122024305 0.40619645
0001f0 f3 28 8f bd 87 e6 4a 3e 52 3e b0 3d d6 f9 3c 3e
       -0.06990232 0.19814502 0.08605637 0.1845468

weight f4 [1, 32]
000000 a4 f5 14 bd a0 da fa bd 14 e3 9e bd 13 ba 8c 3d
       -0.036367074 -0.12248731 -0.077581555 0.06871428
000010 a7 f8 92 bd b4 21 28 3d cc f7 73 3c ff ce c2 bd
       -0.07176333 0.041047767 0.014890622 -0.095121376
000020 14 d2 60 3e fe 90 1f be 1c cc a4 bd c7 6b 3e 3e
       0.21955138 -0.15582654 -0.08046743 0.18595801
000030 c8 ea 29 3e 89 37 32 be 55 08 4d be f1 21 fb 3c
       0.16593468 -0.17403997 -0.2002271 0.030655833
000040 f7 7d d4 3d 58 c4 57 3e 1f cf df bd 8b ed 38 3e
       0.103755884 0.21070993 -0.10928177 0.18059365
000050 33 be b2 bb 3d 8f 34 be 79 33 08 3e ce 82 9b bd
       -0.0054548024 -0.17632766 0.13300885 -0.075933084
000060 2f 50 db bd d5 e2 1a be 3c 88 da 3d a0 4d a0 be
       -0.10708653 -0.15125592 0.10670516 -0.31309223
000070 04 a2 2b 3d fb f3 04 3e 6d 80 5b bd 65 95 14 be
       0.041902557 0.12983696 -0.053589273 -0.14510114
